node {
  name: "input_1"
  op: "Placeholder"
  attr {
    key: "dtype"
    value {
      type: DT_FLOAT
    }
  }
  attr {
    key: "shape"
    value {
      shape {
        dim {
          size: -1
        }
        dim {
          size: 35
        }
        dim {
          size: 35
        }
        dim {
          size: 3
        }
      }
    }
  }
}
node {
  name: "conv1_pad/Pad/paddings"
  op: "Const"
  attr {
    key: "dtype"
    value {
      type: DT_INT32
    }
  }
  attr {
    key: "value"
    value {
      tensor {
        dtype: DT_INT32
        tensor_shape {
          dim {
            size: 4
          }
          dim {
            size: 2
          }
        }
        tensor_content: "…"
      }
    }
  }
}
node {
  name: "conv1_pad/Pad"
  op: "Pad"
  input: "input_1"
  input: "conv1_pad/Pad/paddings"
  attr {
    key: "T"
    value {
      type: DT_FLOAT
    }
  }
  attr {
    key: "Tpaddings"
    value {
      type: DT_INT32
    }
  }
}
node {
  name: "conv1/random_uniform/shape"
  op: "Const"
  attr {
    key: "dtype"
    value {
      type: DT_INT32
    }
  }
  attr {
    key: "value"
    value {
      tensor {
        dtype: DT_INT32
        tensor_shape {
          dim {
            size: 4
          }
        }
        tensor_content: "\003\000\000\000\003\000\000\000\003\000\000\000\020\000\000\000"
      }
    }
  }
}
node {
  name: "conv1/random_uniform/min"
  op: "Const"
  attr {
    key: "dtype"
    value {
      type: DT_FLOAT
    }
  }
  attr {
    key: "value"
    value {
      tensor {
        dtype: DT_FLOAT
        tensor_shape {
        }
        float_val: -0.1873171627521515
      }
    }
  }
}
node {
  name: "conv1/random_uniform/max"
  op: "Const"
  attr {
    key: "dtype"
    value {
      type: DT_FLOAT
    }
  }
  attr {
    key: "value"
    value {
      tensor {
        dtype: DT_FLOAT
        tensor_shape {
        }
        float_val: 0.1873171627521515
      }
    }
  }
}
node {
  name: "conv1/random_uniform/RandomUniform"
  op: "RandomUniform"
  input: "conv1/random_uniform/shape"
  attr {
    key: "T"
    value {
      type: DT_INT32
    }
  }
  attr {
    key: "dtype"
    value {
      type: DT_FLOAT
    }
  }
  attr {
    key: "seed"
    value {
      i: 87654321
    }
  }
  attr {
    key: "seed2"
    value {
      i: 1522578
    }
  }
}
node {
  name: "conv1/random_uniform/sub"
  op: "Sub"
  input: "conv1/random_uniform/max"
  input: "conv1/random_uniform/min"
  attr {
    key: "T"
    value {
      type: DT_FLOAT
    }
  }
}
node {
  name: "conv1/random_uniform/mul"
  op: "Mul"
  input: "conv1/random_uniform/RandomUniform"
  input: "conv1/random_uniform/sub"
  attr {
    key: "T"
    value {
      type: DT_FLOAT
    }
  }
}
node {
  name: "conv1/random_uniform"
  op: "Add"
  input: "conv1/random_uniform/mul"
  input: "conv1/random_uniform/min"
  attr {
    key: "T"
    value {
      type: DT_FLOAT
    }
  }
}
node {
  name: "conv1/kernel"
  op: "VarHandleOp"
  attr {
    key: "_class"
    value {
      list {
        s: "loc:@conv1/kernel"
      }
    }
  }
  attr {
    key: "container"
    value {
      s: ""
    }
  }
  attr {
    key: "dtype"
    value {
      type: DT_FLOAT
    }
  }
  attr {
    key: "shape"
    value {
      shape {
        dim {
          size: 3
        }
        dim {
          size: 3
        }
        dim {
          size: 3
        }
        dim {
          size: 16
        }
      }
    }
  }
  attr {
    key: "shared_name"
    value {
      s: "conv1/kernel"
    }
  }
}
node {
  name: "conv1/kernel/IsInitialized/VarIsInitializedOp"
  op: "VarIsInitializedOp"
  input: "conv1/kernel"
}
node {
  name: "conv1/kernel/Assign"
  op: "AssignVariableOp"
  input: "conv1/kernel"
  input: "conv1/random_uniform"
  attr {
    key: "_class"
    value {
      list {
        s: "loc:@conv1/kernel"
      }
    }
  }
  attr {
    key: "dtype"
    value {
      type: DT_FLOAT
    }
  }
}
node {
  name: "conv1/kernel/Read/ReadVariableOp"
  op: "ReadVariableOp"
  input: "conv1/kernel"
  attr {
    key: "_class"
    value {
      list {
        s: "loc:@conv1/kernel"
      }
    }
  }
  attr {
    key: "dtype"
    value {
      type: DT_FLOAT
    }
  }
}
node {
  name: "conv1/convolution/ReadVariableOp"
  op: "ReadVariableOp"
  input: "conv1/kernel"
  attr {
    key: "dtype"
    value {
      type: DT_FLOAT
    }
  }
}
node {
  name: "conv1/convolution"
  op: "Conv2D"
  input: "conv1_pad/Pad"
  input: "conv1/convolution/ReadVariableOp"
  attr {
    key: "T"
    value {
      type: DT_FLOAT
    }
  }
  attr {
    key: "data_format"
    value {
      s: "NHWC"
    }
  }
  attr {
    key: "dilations"
    value {
      list {
        i: 1
        i: 1
        i: 1
        i: 1
      }
    }
  }
  attr {
    key: "explicit_paddings"
    value {
      list {
      }
    }
  }
  attr {
    key: "padding"
    value {
      s: "VALID"
    }
  }
  attr {
    key: "strides"
    value {
      list {
        i: 1
        i: 2
        i: 2
        i: 1
      }
    }
  }
  attr {
    key: "use_cudnn_on_gpu"
    value {
      b: true
    }
  }
}
node {
  name: "conv1_bn/Const"
  op: "Const"
  attr {
    key: "dtype"
    value {
      type: DT_FLOAT
    }
  }
  attr {
    key: "value"
    value {
      tensor {
        dtype: DT_FLOAT
        tensor_shape {
          dim {
            size: 16
          }
        }
        float_val: 1.0
      }
    }
  }
}
node {
  name: "conv1_bn/gamma"
  op: "VarHandleOp"
  attr {
    key: "_class"
    value {
      list {
        s: "loc:@conv1_bn/gamma"
      }
    }
  }
  attr {
    key: "container"
    value {
      s: ""
    }
  }
  attr {
    key: "dtype"
    value {
      type: DT_FLOAT
    }
  }
  attr {
    key: "shape"
    value {
      shape {
        dim {
          size: 16
        }
      }
    }
  }
  attr {
    key: "shared_name"
    value {
      s: "conv1_bn/gamma"
    }
  }
}
node {
  name: "conv1_bn/gamma/IsInitialized/VarIsInitializedOp"
  op: "VarIsInitializedOp"
  input: "conv1_bn/gamma"
}
node {
  name: "conv1_bn/gamma/Assign"
  op: "AssignVariableOp"
  input: "conv1_bn/gamma"
  input: "conv1_bn/Const"
  attr {
    key: "_class"
    value {
      list {
        s: "loc:@conv1_bn/gamma"
      }
    }
  }
  attr {
    key: "dtype"
    value {
      type: DT_FLOAT
    }
  }
}
node {
  name: "conv1_bn/gamma/Read/ReadVariableOp"
  op: "ReadVariableOp"
  input: "conv1_bn/gamma"
  attr {
    key: "_class"
    value {
      list {
        s: "loc:@conv1_bn/gamma"
      }
    }
  }
  attr {
    key: "dtype"
    value {
      type: DT_FLOAT
    }
  }
}
node {
  name: "conv1_bn/Const_1"
  op: "Const"
  attr {
    key: "dtype"
    value {
      type: DT_FLOAT
    }
  }
  attr {
    key: "value"
    value {
      tensor {
        dtype: DT_FLOAT
        tensor_shape {
          dim {
            size: 16
          }
        }
        float_val: 0.0
      }
    }
  }
}
node {
  name: "conv1_bn/beta"
  op: "VarHandleOp"
  attr {
    key: "_class"
    value {
      list {
        s: "loc:@conv1_bn/beta"
      }
    }
  }
  attr {
    key: "container"
    value {
      s: ""
    }
  }
  attr {
    key: "dtype"
    value {
      type: DT_FLOAT
    }
  }
  attr {
    key: "shape"
    value {
      shape {
        dim {
          size: 16
        }
      }
    }
  }
  attr {
    key: "shared_name"
    value {
      s: "conv1_bn/beta"
    }
  }
}
node {
  name: "conv1_bn/beta/IsInitialized/VarIsInitializedOp"
  op: "VarIsInitializedOp"
  input: "conv1_bn/beta"
}
node {
  name: "conv1_bn/beta/Assign"
  op: "AssignVariableOp"
  input: "conv1_bn/beta"
  input: "conv1_bn/Const_1"
  attr {
    key: "_class"
    value {
      list {
        s: "loc:@conv1_bn/beta"
      }
    }
  }
  attr {
    key: "dtype"
    value {
      type: DT_FLOAT
    }
  }
}
node {
  name: "conv1_bn/beta/Read/ReadVariableOp"
  op: "ReadVariableOp"
  input: "conv1_bn/beta"
  attr {
    key: "_class"
    value {
      list {
        s: "loc:@conv1_bn/beta"
      }
    }
  }
  attr {
    key: "dtype"
    value {
      type: DT_FLOAT
    }
  }
}
node {
  name: "conv1_bn/Const_2"
  op: "Const"
  attr {
    key: "dtype"
    value {
      type: DT_FLOAT
    }
  }
  attr {
    key: "value"
    value {
      tensor {
        dtype: DT_FLOAT
        tensor_shape {
          dim {
            size: 16
          }
        }
        float_val: 0.0
      }
    }
  }
}
node {
  name: "conv1_bn/moving_mean"
  op: "VarHandleOp"
  attr {
    key: "_class"
    value {
      list {
        s: "loc:@conv1_bn/moving_mean"
      }
    }
  }
  attr {
    key: "container"
    value {
      s: ""
    }
  }
  attr {
    key: "dtype"
    value {
      type: DT_FLOAT
    }
  }
  attr {
    key: "shape"
    value {
      shape {
        dim {
          size: 16
        }
      }
    }
  }
  attr {
    key: "shared_name"
    value {
      s: "conv1_bn/moving_mean"
    }
  }
}
node {
  name: "conv1_bn/moving_mean/IsInitialized/VarIsInitializedOp"
  op: "VarIsInitializedOp"
  input: "conv1_bn/moving_mean"
}
node {
  name: "conv1_bn/moving_mean/Assign"
  op: "AssignVariableOp"
  input: "conv1_bn/moving_mean"
  input: "conv1_bn/Const_2"
  attr {
    key: "_class"
    value {
      list {
        s: "loc:@conv1_bn/moving_mean"
      }
    }
  }
  attr {
    key: "dtype"
    value {
      type: DT_FLOAT
    }
  }
}
node {
  name: "conv1_bn/moving_mean/Read/ReadVariableOp"
  op: "ReadVariableOp"
  input: "conv1_bn/moving_mean"
  attr {
    key: "_class"
    value {
      list {
        s: "loc:@conv1_bn/moving_mean"
      }
    }
  }
  attr {
    key: "dtype"
    value {
      type: DT_FLOAT
    }
  }
}
node {
  name: "conv1_bn/Const_3"
  op: "Const"
  attr {
    key: "dtype"
    value {
      type: DT_FLOAT
    }
  }
  attr {
    key: "value"
    value {
      tensor {
        dtype: DT_FLOAT
        tensor_shape {
          dim {
            size: 16
          }
        }
        float_val: 1.0
      }
    }
  }
}
node {
  name: "conv1_bn/moving_variance"
  op: "VarHandleOp"
  attr {
    key: "_class"
    value {
      list {
        s: "loc:@conv1_bn/moving_variance"
      }
    }
  }
  attr {
    key: "container"
    value {
      s: ""
    }
  }
  attr {
    key: "dtype"
    value {
      type: DT_FLOAT
    }
  }
  attr {
    key: "shape"
    value {
      shape {
        dim {
          size: 16
        }
      }
    }
  }
  attr {
    key: "shared_name"
    value {
      s: "conv1_bn/moving_variance"
    }
  }
}
node {
  name: "conv1_bn/moving_variance/IsInitialized/VarIsInitializedOp"
  op: "VarIsInitializedOp"
  input: "conv1_bn/moving_variance"
}
node {
  name: "conv1_bn/moving_variance/Assign"
  op: "AssignVariableOp"
  input: "conv1_bn/moving_variance"
  input: "conv1_bn/Const_3"
  attr {
    key: "_class"
    value {
      list {
        s: "loc:@conv1_bn/moving_variance"
      }
    }
  }
  attr {
    key: "dtype"
    value {
      type: DT_FLOAT
    }
  }
}
node {
  name: "conv1_bn/moving_variance/Read/ReadVariableOp"
  op: "ReadVariableOp"
  input: "conv1_bn/moving_variance"
  attr {
    key: "_class"
    value {
      list {
        s: "loc:@conv1_bn/moving_variance"
      }
    }
  }
  attr {
    key: "dtype"
    value {
      type: DT_FLOAT
    }
  }
}
node {
  name: "conv1_bn/VarIsInitializedOp"
  op: "VarIsInitializedOp"
  input: "conv1_bn/moving_variance"
}
node {
  name: "conv1_bn/VarIsInitializedOp_1"
  op: "VarIsInitializedOp"
  input: "conv1_bn/gamma"
}
node {
  name: "conv1_bn/VarIsInitializedOp_2"
  op: "VarIsInitializedOp"
  input: "conv1/kernel"
}
node {
  name: "conv1_bn/VarIsInitializedOp_3"
  op: "VarIsInitializedOp"
  input: "conv1_bn/beta"
}
node {
  name: "conv1_bn/VarIsInitializedOp_4"
  op: "VarIsInitializedOp"
  input: "conv1_bn/moving_mean"
}
node {
  name: "conv1_bn/init"
  op: "NoOp"
  input: "^conv1/kernel/Assign"
  input: "^conv1_bn/beta/Assign"
  input: "^conv1_bn/gamma/Assign"
  input: "^conv1_bn/moving_mean/Assign"
  input: "^conv1_bn/moving_variance/Assign"
}
node {
  name: "conv1_bn/ReadVariableOp"
  op: "ReadVariableOp"
  input: "conv1_bn/gamma"
  attr {
    key: "dtype"
    value {
      type: DT_FLOAT
    }
  }
}
node {
  name: "conv1_bn/ReadVariableOp_1"
  op: "ReadVariableOp"
  input: "conv1_bn/beta"
  attr {
    key: "dtype"
    value {
      type: DT_FLOAT
    }
  }
}
node {
  name: "conv1_bn/Const_4"
  op: "Const"
  attr {
    key: "dtype"
    value {
      type: DT_FLOAT
    }
  }
  attr {
    key: "value"
    value {
      tensor {
        dtype: DT_FLOAT
        tensor_shape {
          dim {
          }
        }
      }
    }
  }
}
node {
  name: "conv1_bn/Const_5"
  op: "Const"
  attr {
    key: "dtype"
    value {
      type: DT_FLOAT
    }
  }
  attr {
    key: "value"
    value {
      tensor {
        dtype: DT_FLOAT
        tensor_shape {
          dim {
          }
        }
      }
    }
  }
}
node {
  name: "conv1_bn/FusedBatchNorm"
  op: "FusedBatchNorm"
  input: "conv1/convolution"
  input: "conv1_bn/ReadVariableOp"
  input: "conv1_bn/ReadVariableOp_1"
  input: "conv1_bn/Const_4"
  input: "conv1_bn/Const_5"
  attr {
    key: "T"
    value {
      type: DT_FLOAT
    }
  }
  attr {
    key: "data_format"
    value {
      s: "NHWC"
    }
  }
  attr {
    key: "epsilon"
    value {
      f: 0.0010000000474974513
    }
  }
  attr {
    key: "is_training"
    value {
      b: true
    }
  }
}
node {
  name: "conv1_bn/Shape"
  op: "Shape"
  input: "conv1/convolution"
  attr {
    key: "T"
    value {
      type: DT_FLOAT
    }
  }
  attr {
    key: "out_type"
    value {
      type: DT_INT32
    }
  }
}
node {
  name: "conv1_bn/strided_slice/stack"
  op: "Const"
  attr {
    key: "dtype"
    value {
      type: DT_INT32
    }
  }
  attr {
    key: "value"
    value {
      tensor {
        dtype: DT_INT32
        tensor_shape {
          dim {
            size: 1
          }
        }
        int_val: 0
      }
    }
  }
}
node {
  name: "conv1_bn/strided_slice/stack_1"
  op: "Const"
  attr {
    key: "dtype"
    value {
      type: DT_INT32
    }
  }
  attr {
    key: "value"
    value {
      tensor {
        dtype: DT_INT32
        tensor_shape {
          dim {
            size: 1
          }
        }
        int_val: 1
      }
    }
  }
}
node {
  name: "conv1_bn/strided_slice/stack_2"
  op: "Const"
  attr {
    key: "dtype"
    value {
      type: DT_INT32
    }
  }
  attr {
    key: "value"
    value {
      tensor {
        dtype: DT_INT32
        tensor_shape {
          dim {
            size: 1
          }
        }
        int_val: 1
      }
    }
  }
}
node {
  name: "conv1_bn/strided_slice"
  op: "StridedSlice"
  input: "conv1_bn/Shape"
  input: "conv1_bn/strided_slice/stack"
  input: "conv1_bn/strided_slice/stack_1"
  input: "conv1_bn/strided_slice/stack_2"
  attr {
    key: "Index"
    value {
      type: DT_INT32
    }
  }
  attr {
    key: "T"
    value {
      type: DT_INT32
    }
  }
  attr {
    key: "begin_mask"
    value {
      i: 0
    }
  }
  attr {
    key: "ellipsis_mask"
    value {
      i: 0
    }
  }
  attr {
    key: "end_mask"
    value {
      i: 0
    }
  }
  attr {
    key: "new_axis_mask"
    value {
      i: 0
    }
  }
  attr {
    key: "shrink_axis_mask"
    value {
      i: 1
    }
  }
}
node {
  name: "conv1_bn/Shape_1"
  op: "Shape"
  input: "conv1/convolution"
  attr {
    key: "T"
    value {
      type: DT_FLOAT
    }
  }
  attr {
    key: "out_type"
    value {
      type: DT_INT32
    }
  }
}
node {
  name: "conv1_bn/strided_slice_1/stack"
  op: "Const"
  attr {
    key: "dtype"
    value {
      type: DT_INT32
    }
  }
  attr {
    key: "value"
    value {
      tensor {
        dtype: DT_INT32
        tensor_shape {
          dim {
            size: 1
          }
        }
        int_val: 1
      }
    }
  }
}
node {
  name: "conv1_bn/strided_slice_1/stack_1"
  op: "Const"
  attr {
    key: "dtype"
    value {
      type: DT_INT32
    }
  }
  attr {
    key: "value"
    value {
      tensor {
        dtype: DT_INT32
        tensor_shape {
          dim {
            size: 1
          }
        }
        int_val: 2
      }
    }
  }
}
node {
  name: "conv1_bn/strided_slice_1/stack_2"
  op: "Const"
  attr {
    key: "dtype"
    value {
      type: DT_INT32
    }
  }
  attr {
    key: "value"
    value {
      tensor {
        dtype: DT_INT32
        tensor_shape {
          dim {
            size: 1
          }
        }
        int_val: 1
      }
    }
  }
}
node {
  name: "conv1_bn/strided_slice_1"
  op: "StridedSlice"
  input: "conv1_bn/Shape_1"
  input: "conv1_bn/strided_slice_1/stack"
  input: "conv1_bn/strided_slice_1/stack_1"
  input: "conv1_bn/strided_slice_1/stack_2"
  attr {
    key: "Index"
    value {
      type: DT_INT32
    }
  }
  attr {
    key: "T"
    value {
      type: DT_INT32
    }
  }
  attr {
    key: "begin_mask"
    value {
      i: 0
    }
  }
  attr {
    key: "ellipsis_mask"
    value {
      i: 0
    }
  }
  attr {
    key: "end_mask"
    value {
      i: 0
    }
  }
  attr {
    key: "new_axis_mask"
    value {
      i: 0
    }
  }
  attr {
    key: "shrink_axis_mask"
    value {
      i: 1
    }
  }
}
node {
  name: "conv1_bn/Shape_2"
  op: "Shape"
  input: "conv1/convolution"
  attr {
    key: "T"
    value {
      type: DT_FLOAT
    }
  }
  attr {
    key: "out_type"
    value {
      type: DT_INT32
    }
  }
}
node {
  name: "conv1_bn/strided_slice_2/stack"
  op: "Const"
  attr {
    key: "dtype"
    value {
      type: DT_INT32
    }
  }
  attr {
    key: "value"
    value {
      tensor {
        dtype: DT_INT32
        tensor_shape {
          dim {
            size: 1
          }
        }
        int_val: 2
      }
    }
  }
}
node {
  name: "conv1_bn/strided_slice_2/stack_1"
  op: "Const"
  attr {
    key: "dtype"
    value {
      type: DT_INT32
    }
  }
  attr {
    key: "value"
    value {
      tensor {
        dtype: DT_INT32
        tensor_shape {
          dim {
            size: 1
          }
        }
        int_val: 3
      }
    }
  }
}
node {
  name: "conv1_bn/strided_slice_2/stack_2"
  op: "Const"
  attr {
    key: "dtype"
    value {
      type: DT_INT32
    }
  }
  attr {
    key: "value"
    value {
      tensor {
        dtype: DT_INT32
        tensor_shape {
          dim {
            size: 1
          }
        }
        int_val: 1
      }
    }
  }
}
node {
  name: "conv1_bn/strided_slice_2"
  op: "StridedSlice"
  input: "conv1_bn/Shape_2"
  input: "conv1_bn/strided_slice_2/stack"
  input: "conv1_bn/strided_slice_2/stack_1"
  input: "conv1_bn/strided_slice_2/stack_2"
  attr {
    key: "Index"
    value {
      type: DT_INT32
    }
  }
  attr {
    key: "T"
    value {
      type: DT_INT32
    }
  }
  attr {
    key: "begin_mask"
    value {
      i: 0
    }
  }
  attr {
    key: "ellipsis_mask"
    value {
      i: 0
    }
  }
  attr {
    key: "end_mask"
    value {
      i: 0
    }
  }
  attr {
    key: "new_axis_mask"
    value {
      i: 0
    }
  }
  attr {
    key: "shrink_axis_mask"
    value {
      i: 1
    }
  }
}
node {
  name: "conv1_bn/Rank/packed"
  op: "Pack"
  input: "conv1_bn/strided_slice"
  input: "conv1_bn/strided_slice_1"
  input: "conv1_bn/strided_slice_2"
  attr {
    key: "N"
    value {
      i: 3
    }
  }
  attr {
    key: "T"
    value {
      type: DT_INT32
    }
  }
  attr {
    key: "axis"
    value {
      i: 0
    }
  }
}
node {
  name: "conv1_bn/Rank"
  op: "Const"
  attr {
    key: "dtype"
    value {
      type: DT_INT32
    }
  }
  attr {
    key: "value"
    value {
      tensor {
        dtype: DT_INT32
        tensor_shape {
        }
        int_val: 1
      }
    }
  }
}
node {
  name: "conv1_bn/range/start"
  op: "Const"
  attr {
    key: "dtype"
    value {
      type: DT_INT32
    }
  }
  attr {
    key: "value"
    value {
      tensor {
        dtype: DT_INT32
        tensor_shape {
        }
        int_val: 0
      }
    }
  }
}
node {
  name: "conv1_bn/range/delta"
  op: "Const"
  attr {
    key: "dtype"
    value {
      type: DT_INT32
    }
  }
  attr {
    key: "value"
    value {
      tensor {
        dtype: DT_INT32
        tensor_shape {
        }
        int_val: 1
      }
    }
  }
}
node {
  name: "conv1_bn/range"
  op: "Range"
  input: "conv1_bn/range/start"
  input: "conv1_bn/Rank"
  input: "conv1_bn/range/delta"
  attr {
    key: "Tidx"
    value {
      type: DT_INT32
    }
  }
}
node {
  name: "conv1_bn/Prod/input"
  op: "Pack"
  input: "conv1_bn/strided_slice"
  input: "conv1_bn/strided_slice_1"
  input: "conv1_bn/strided_slice_2"
  attr {
    key: "N"
    value {
      i: 3
    }
  }
  attr {
    key: "T"
    value {
      type: DT_INT32
    }
  }
  attr {
    key: "axis"
    value {
      i: 0
    }
  }
}
node {
  name: "conv1_bn/Prod"
  op: "Prod"
  input: "conv1_bn/Prod/input"
  input: "conv1_bn/range"
  attr {
    key: "T"
    value {
      type: DT_INT32
    }
  }
  attr {
    key: "Tidx"
    value {
      type: DT_INT32
    }
  }
  attr {
    key: "keep_dims"
    value {
      b: false
    }
  }
}
node {
  name: "conv1_bn/Cast"
  op: "Cast"
  input: "conv1_bn/Prod"
  attr {
    key: "DstT"
    value {
      type: DT_FLOAT
    }
  }
  attr {
    key: "SrcT"
    value {
      type: DT_INT32
    }
  }
  attr {
    key: "Truncate"
    value {
      b: false
    }
  }
}
node {
  name: "conv1_bn/sub/y"
  op: "Const"
  attr {
    key: "dtype"
    value {
      type: DT_FLOAT
    }
  }
  attr {
    key: "value"
    value {
      tensor {
        dtype: DT_FLOAT
        tensor_shape {
        }
        float_val: 1.0010000467300415
      }
    }
  }
}
node {
  name: "conv1_bn/sub"
  op: "Sub"
  input: "conv1_bn/Cast"
  input: "conv1_bn/sub/y"
  attr {
    key: "T"
    value {
      type: DT_FLOAT
    }
  }
}
node {
  name: "conv1_bn/truediv"
  op: "RealDiv"
  input: "conv1_bn/Cast"
  input: "conv1_bn/sub"
  attr {
    key: "T"
    value {
      type: DT_FLOAT
    }
  }
}
node {
  name: "conv1_bn/mul"
  op: "Mul"
  input: "conv1_bn/FusedBatchNorm:2"
  input: "conv1_bn/truediv"
  attr {
    key: "T"
    value {
      type: DT_FLOAT
    }
  }
}
node {
  name: "conv1_bn/Const_6"
  op: "Const"
  attr {
    key: "_class"
    value {
      list {
        s: "loc:@conv1_bn/moving_mean"
      }
    }
  }
  attr {
    key: "dtype"
    value {
      type: DT_FLOAT
    }
  }
  attr {
    key: "value"
    value {
      tensor {
        dtype: DT_FLOAT
        tensor_shape {
        }
        float_val: 0.009999999776482582
      }
    }
  }
}
node {
  name: "conv1_bn/ReadVariableOp_2"
  op: "ReadVariableOp"
  input: "conv1_bn/moving_mean"
  attr {
    key: "dtype"
    value {
      type: DT_FLOAT
    }
  }
}
node {
  name: "conv1_bn/sub_1"
  op: "Sub"
  input: "conv1_bn/ReadVariableOp_2"
  input: "conv1_bn/FusedBatchNorm:1"
  attr {
    key: "T"
    value {
      type: DT_FLOAT
    }
  }
  attr {
    key: "_class"
    value {
      list {
        s: "loc:@conv1_bn/moving_mean"
      }
    }
  }
}
node {
  name: "conv1_bn/mul_1"
  op: "Mul"
  input: "conv1_bn/sub_1"
  input: "conv1_bn/Const_6"
  attr {
    key: "T"
    value {
      type: DT_FLOAT
    }
  }
  attr {
    key: "_class"
    value {
      list {
        s: "loc:@conv1_bn/moving_mean"
      }
    }
  }
}
node {
  name: "conv1_bn/AssignSubVariableOp"
  op: "AssignSubVariableOp"
  input: "conv1_bn/moving_mean"
  input: "conv1_bn/mul_1"
  attr {
    key: "_class"
    value {
      list {
        s: "loc:@conv1_bn/moving_mean"
      }
    }
  }
  attr {
    key: "dtype"
    value {
      type: DT_FLOAT
    }
  }
}
node {
  name: "conv1_bn/ReadVariableOp_3"
  op: "ReadVariableOp"
  input: "conv1_bn/moving_mean"
  input: "^conv1_bn/AssignSubVariableOp"
  attr {
    key: "_class"
    value {
      list {
        s: "loc:@conv1_bn/moving_mean"
      }
    }
  }
  attr {
    key: "dtype"
    value {
      type: DT_FLOAT
    }
  }
}
node {
  name: "conv1_bn/Const_7"
  op: "Const"
  attr {
    key: "_class"
    value {
      list {
        s: "loc:@conv1_bn/moving_variance"
      }
    }
  }
  attr {
    key: "dtype"
    value {
      type: DT_FLOAT
    }
  }
  attr {
    key: "value"
    value {
      tensor {
        dtype: DT_FLOAT
        tensor_shape {
        }
        float_val: 0.009999999776482582
      }
    }
  }
}
node {
  name: "conv1_bn/ReadVariableOp_4"
  op: "ReadVariableOp"
  input: "conv1_bn/moving_variance"
  attr {
    key: "dtype"
    value {
      type: DT_FLOAT
    }
  }
}
node {
  name: "conv1_bn/sub_2"
  op: "Sub"
  input: "conv1_bn/ReadVariableOp_4"
  input: "conv1_bn/mul"
  attr {
    key: "T"
    value {
      type: DT_FLOAT
    }
  }
  attr {
    key: "_class"
    value {
      list {
        s: "loc:@conv1_bn/moving_variance"
      }
    }
  }
}
node {
  name: "conv1_bn/mul_2"
  op: "Mul"
  input: "conv1_bn/sub_2"
  input: "conv1_bn/Const_7"
  attr {
    key: "T"
    value {
      type: DT_FLOAT
    }
  }
  attr {
    key: "_class"
    value {
      list {
        s: "loc:@conv1_bn/moving_variance"
      }
    }
  }
}
node {
  name: "conv1_bn/AssignSubVariableOp_1"
  op: "AssignSubVariableOp"
  input: "conv1_bn/moving_variance"
  input: "conv1_bn/mul_2"
  attr {
    key: "_class"
    value {
      list {
        s: "loc:@conv1_bn/moving_variance"
      }
    }
  }
  attr {
    key: "dtype"
    value {
      type: DT_FLOAT
    }
  }
}
node {
  name: "conv1_bn/ReadVariableOp_5"
  op: "ReadVariableOp"
  input: "conv1_bn/moving_variance"
  input: "^conv1_bn/AssignSubVariableOp_1"
  attr {
    key: "_class"
    value {
      list {
        s: "loc:@conv1_bn/moving_variance"
      }
    }
  }
  attr {
    key: "dtype"
    value {
      type: DT_FLOAT
    }
  }
}
node {
  name: "conv1_bn/ReadVariableOp_6"
  op: "ReadVariableOp"
  input: "conv1_bn/gamma"
  attr {
    key: "dtype"
    value {
      type: DT_FLOAT
    }
  }
}
node {
  name: "conv1_bn/ReadVariableOp_7"
  op: "ReadVariableOp"
  input: "conv1_bn/beta"
  attr {
    key: "dtype"
    value {
      type: DT_FLOAT
    }
  }
}
node {
  name: "conv1_bn/FusedBatchNorm_1/ReadVariableOp"
  op: "ReadVariableOp"
  input: "conv1_bn/moving_mean"
  attr {
    key: "dtype"
    value {
      type: DT_FLOAT
    }
  }
}
node {
  name: "conv1_bn/FusedBatchNorm_1/ReadVariableOp_1"
  op: "ReadVariableOp"
  input: "conv1_bn/moving_variance"
  attr {
    key: "dtype"
    value {
      type: DT_FLOAT
    }
  }
}
node {
  name: "conv1_bn/FusedBatchNorm_1"
  op: "FusedBatchNorm"
  input: "conv1/convolution"
  input: "conv1_bn/ReadVariableOp_6"
  input: "conv1_bn/ReadVariableOp_7"
  input: "conv1_bn/FusedBatchNorm_1/ReadVariableOp"
  input: "conv1_bn/FusedBatchNorm_1/ReadVariableOp_1"
  attr {
    key: "T"
    value {
      type: DT_FLOAT
    }
  }
  attr {
    key: "data_format"
    value {
      s: "NHWC"
    }
  }
  attr {
    key: "epsilon"
    value {
      f: 0.0010000000474974513
    }
  }
  attr {
    key: "is_training"
    value {
      b: false
    }
  }
}
node {
  name: "conv1_relu/Relu6"
  op: "Relu6"
  input: "conv1_bn/FusedBatchNorm_1"
  attr {
    key: "T"
    value {
      type: DT_FLOAT
    }
  }
}
node {
  name: "conv_dw_1/random_uniform/shape"
  op: "Const"
  attr {
    key: "dtype"
    value {
      type: DT_INT32
    }
  }
  attr {
    key: "value"
    value {
      tensor {
        dtype: DT_INT32
        tensor_shape {
          dim {
            size: 4
          }
        }
        tensor_content: "\003\000\000\000\003\000\000\000\020\000\000\000\001\000\000\000"
      }
    }
  }
}
node {
  name: "conv_dw_1/random_uniform/min"
  op: "Const"
  attr {
    key: "dtype"
    value {
      type: DT_FLOAT
    }
  }
  attr {
    key: "value"
    value {
      tensor {
        dtype: DT_FLOAT
        tensor_shape {
        }
        float_val: -0.1980295032262802
      }
    }
  }
}
node {
  name: "conv_dw_1/random_uniform/max"
  op: "Const"
  attr {
    key: "dtype"
    value {
      type: DT_FLOAT
    }
  }
  attr {
    key: "value"
    value {
      tensor {
        dtype: DT_FLOAT
        tensor_shape {
        }
        float_val: 0.1980295032262802
      }
    }
  }
}
node {
  name: "conv_dw_1/random_uniform/RandomUniform"
  op: "RandomUniform"
  input: "conv_dw_1/random_uniform/shape"
  attr {
    key: "T"
    value {
      type: DT_INT32
    }
  }
  attr {
    key: "dtype"
    value {
      type: DT_FLOAT
    }
  }
  attr {
    key: "seed"
    value {
      i: 87654321
    }
  }
  attr {
    key: "seed2"
    value {
      i: 1312561
    }
  }
}
node {
  name: "conv_dw_1/random_uniform/sub"
  op: "Sub"
  input: "conv_dw_1/random_uniform/max"
  input: "conv_dw_1/random_uniform/min"
  attr {
    key: "T"
    value {
      type: DT_FLOAT
    }
  }
}
node {
  name: "conv_dw_1/random_uniform/mul"
  op: "Mul"
  input: "conv_dw_1/random_uniform/RandomUniform"
  input: "conv_dw_1/random_uniform/sub"
  attr {
    key: "T"
    value {
      type: DT_FLOAT
    }
  }
}
node {
  name: "conv_dw_1/random_uniform"
  op: "Add"
  input: "conv_dw_1/random_uniform/mul"
  input: "conv_dw_1/random_uniform/min"
  attr {
    key: "T"
    value {
      type: DT_FLOAT
    }
  }
}
node {
  name: "conv_dw_1/depthwise_kernel"
  op: "VarHandleOp"
  attr {
    key: "_class"
    value {
      list {
        s: "loc:@conv_dw_1/depthwise_kernel"
      }
    }
  }
  attr {
    key: "container"
    value {
      s: ""
    }
  }
  attr {
    key: "dtype"
    value {
      type: DT_FLOAT
    }
  }
  attr {
    key: "shape"
    value {
      shape {
        dim {
          size: 3
        }
        dim {
          size: 3
        }
        dim {
          size: 16
        }
        dim {
          size: 1
        }
      }
    }
  }
  attr {
    key: "shared_name"
    value {
      s: "conv_dw_1/depthwise_kernel"
    }
  }
}
node {
  name: "conv_dw_1/depthwise_kernel/IsInitialized/VarIsInitializedOp"
  op: "VarIsInitializedOp"
  input: "conv_dw_1/depthwise_kernel"
}
node {
  name: "conv_dw_1/depthwise_kernel/Assign"
  op: "AssignVariableOp"
  input: "conv_dw_1/depthwise_kernel"
  input: "conv_dw_1/random_uniform"
  attr {
    key: "_class"
    value {
      list {
        s: "loc:@conv_dw_1/depthwise_kernel"
      }
    }
  }
  attr {
    key: "dtype"
    value {
      type: DT_FLOAT
    }
  }
}
node {
  name: "conv_dw_1/depthwise_kernel/Read/ReadVariableOp"
  op: "ReadVariableOp"
  input: "conv_dw_1/depthwise_kernel"
  attr {
    key: "_class"
    value {
      list {
        s: "loc:@conv_dw_1/depthwise_kernel"
      }
    }
  }
  attr {
    key: "dtype"
    value {
      type: DT_FLOAT
    }
  }
}
node {
  name: "conv_dw_1/depthwise/ReadVariableOp"
  op: "ReadVariableOp"
  input: "conv_dw_1/depthwise_kernel"
  attr {
    key: "dtype"
    value {
      type: DT_FLOAT
    }
  }
}
node {
  name: "conv_dw_1/depthwise/Shape"
  op: "Const"
  attr {
    key: "dtype"
    value {
      type: DT_INT32
    }
  }
  attr {
    key: "value"
    value {
      tensor {
        dtype: DT_INT32
        tensor_shape {
          dim {
            size: 4
          }
        }
        tensor_content: "\003\000\000\000\003\000\000\000\020\000\000\000\001\000\000\000"
      }
    }
  }
}
node {
  name: "conv_dw_1/depthwise/dilation_rate"
  op: "Const"
  attr {
    key: "dtype"
    value {
      type: DT_INT32
    }
  }
  attr {
    key: "value"
    value {
      tensor {
        dtype: DT_INT32
        tensor_shape {
          dim {
            size: 2
          }
        }
        tensor_content: "\001\000\000\000\001\000\000\000"
      }
    }
  }
}
node {
  name: "conv_dw_1/depthwise"
  op: "DepthwiseConv2dNative"
  input: "conv1_relu/Relu6"
  input: "conv_dw_1/depthwise/ReadVariableOp"
  attr {
    key: "T"
    value {
      type: DT_FLOAT
    }
  }
  attr {
    key: "data_format"
    value {
      s: "NHWC"
    }
  }
  attr {
    key: "dilations"
    value {
      list {
        i: 1
        i: 1
        i: 1
        i: 1
      }
    }
  }
  attr {
    key: "padding"
    value {
      s: "SAME"
    }
  }
  attr {
    key: "strides"
    value {
      list {
        i: 1
        i: 1
        i: 1
        i: 1
      }
    }
  }
}
node {
  name: "conv_dw_1_bn/Const"
  op: "Const"
  attr {
    key: "dtype"
    value {
      type: DT_FLOAT
    }
  }
  attr {
    key: "value"
    value {
      tensor {
        dtype: DT_FLOAT
        tensor_shape {
          dim {
            size: 16
          }
        }
        float_val: 1.0
      }
    }
  }
}
node {
  name: "conv_dw_1_bn/gamma"
  op: "VarHandleOp"
  attr {
    key: "_class"
    value {
      list {
        s: "loc:@conv_dw_1_bn/gamma"
      }
    }
  }
  attr {
    key: "container"
    value {
      s: ""
    }
  }
  attr {
    key: "dtype"
    value {
      type: DT_FLOAT
    }
  }
  attr {
    key: "shape"
    value {
      shape {
        dim {
          size: 16
        }
      }
    }
  }
  attr {
    key: "shared_name"
    value {
      s: "conv_dw_1_bn/gamma"
    }
  }
}
node {
  name: "conv_dw_1_bn/gamma/IsInitialized/VarIsInitializedOp"
  op: "VarIsInitializedOp"
  input: "conv_dw_1_bn/gamma"
}
node {
  name: "conv_dw_1_bn/gamma/Assign"
  op: "AssignVariableOp"
  input: "conv_dw_1_bn/gamma"
  input: "conv_dw_1_bn/Const"
  attr {
    key: "_class"
    value {
      list {
        s: "loc:@conv_dw_1_bn/gamma"
      }
    }
  }
  attr {
    key: "dtype"
    value {
      type: DT_FLOAT
    }
  }
}
node {
  name: "conv_dw_1_bn/gamma/Read/ReadVariableOp"
  op: "ReadVariableOp"
  input: "conv_dw_1_bn/gamma"
  attr {
    key: "_class"
    value {
      list {
        s: "loc:@conv_dw_1_bn/gamma"
      }
    }
  }
  attr {
    key: "dtype"
    value {
      type: DT_FLOAT
    }
  }
}
node {
  name: "conv_dw_1_bn/Const_1"
  op: "Const"
  attr {
    key: "dtype"
    value {
      type: DT_FLOAT
    }
  }
  attr {
    key: "value"
    value {
      tensor {
        dtype: DT_FLOAT
        tensor_shape {
          dim {
            size: 16
          }
        }
        float_val: 0.0
      }
    }
  }
}
node {
  name: "conv_dw_1_bn/beta"
  op: "VarHandleOp"
  attr {
    key: "_class"
    value {
      list {
        s: "loc:@conv_dw_1_bn/beta"
      }
    }
  }
  attr {
    key: "container"
    value {
      s: ""
    }
  }
  attr {
    key: "dtype"
    value {
      type: DT_FLOAT
    }
  }
  attr {
    key: "shape"
    value {
      shape {
        dim {
          size: 16
        }
      }
    }
  }
  attr {
    key: "shared_name"
    value {
      s: "conv_dw_1_bn/beta"
    }
  }
}
node {
  name: "conv_dw_1_bn/beta/IsInitialized/VarIsInitializedOp"
  op: "VarIsInitializedOp"
  input: "conv_dw_1_bn/beta"
}
node {
  name: "conv_dw_1_bn/beta/Assign"
  op: "AssignVariableOp"
  input: "conv_dw_1_bn/beta"
  input: "conv_dw_1_bn/Const_1"
  attr {
    key: "_class"
    value {
      list {
        s: "loc:@conv_dw_1_bn/beta"
      }
    }
  }
  attr {
    key: "dtype"
    value {
      type: DT_FLOAT
    }
  }
}
node {
  name: "conv_dw_1_bn/beta/Read/ReadVariableOp"
  op: "ReadVariableOp"
  input: "conv_dw_1_bn/beta"
  attr {
    key: "_class"
    value {
      list {
        s: "loc:@conv_dw_1_bn/beta"
      }
    }
  }
  attr {
    key: "dtype"
    value {
      type: DT_FLOAT
    }
  }
}
node {
  name: "conv_dw_1_bn/Const_2"
  op: "Const"
  attr {
    key: "dtype"
    value {
      type: DT_FLOAT
    }
  }
  attr {
    key: "value"
    value {
      tensor {
        dtype: DT_FLOAT
        tensor_shape {
          dim {
            size: 16
          }
        }
        float_val: 0.0
      }
    }
  }
}
node {
  name: "conv_dw_1_bn/moving_mean"
  op: "VarHandleOp"
  attr {
    key: "_class"
    value {
      list {
        s: "loc:@conv_dw_1_bn/moving_mean"
      }
    }
  }
  attr {
    key: "container"
    value {
      s: ""
    }
  }
  attr {
    key: "dtype"
    value {
      type: DT_FLOAT
    }
  }
  attr {
    key: "shape"
    value {
      shape {
        dim {
          size: 16
        }
      }
    }
  }
  attr {
    key: "shared_name"
    value {
      s: "conv_dw_1_bn/moving_mean"
    }
  }
}
node {
  name: "conv_dw_1_bn/moving_mean/IsInitialized/VarIsInitializedOp"
  op: "VarIsInitializedOp"
  input: "conv_dw_1_bn/moving_mean"
}
node {
  name: "conv_dw_1_bn/moving_mean/Assign"
  op: "AssignVariableOp"
  input: "conv_dw_1_bn/moving_mean"
  input: "conv_dw_1_bn/Const_2"
  attr {
    key: "_class"
    value {
      list {
        s: "loc:@conv_dw_1_bn/moving_mean"
      }
    }
  }
  attr {
    key: "dtype"
    value {
      type: DT_FLOAT
    }
  }
}
node {
  name: "conv_dw_1_bn/moving_mean/Read/ReadVariableOp"
  op: "ReadVariableOp"
  input: "conv_dw_1_bn/moving_mean"
  attr {
    key: "_class"
    value {
      list {
        s: "loc:@conv_dw_1_bn/moving_mean"
      }
    }
  }
  attr {
    key: "dtype"
    value {
      type: DT_FLOAT
    }
  }
}
node {
  name: "conv_dw_1_bn/Const_3"
  op: "Const"
  attr {
    key: "dtype"
    value {
      type: DT_FLOAT
    }
  }
  attr {
    key: "value"
    value {
      tensor {
        dtype: DT_FLOAT
        tensor_shape {
          dim {
            size: 16
          }
        }
        float_val: 1.0
      }
    }
  }
}
node {
  name: "conv_dw_1_bn/moving_variance"
  op: "VarHandleOp"
  attr {
    key: "_class"
    value {
      list {
        s: "loc:@conv_dw_1_bn/moving_variance"
      }
    }
  }
  attr {
    key: "container"
    value {
      s: ""
    }
  }
  attr {
    key: "dtype"
    value {
      type: DT_FLOAT
    }
  }
  attr {
    key: "shape"
    value {
      shape {
        dim {
          size: 16
        }
      }
    }
  }
  attr {
    key: "shared_name"
    value {
      s: "conv_dw_1_bn/moving_variance"
    }
  }
}
node {
  name: "conv_dw_1_bn/moving_variance/IsInitialized/VarIsInitializedOp"
  op: "VarIsInitializedOp"
  input: "conv_dw_1_bn/moving_variance"
}
node {
  name: "conv_dw_1_bn/moving_variance/Assign"
  op: "AssignVariableOp"
  input: "conv_dw_1_bn/moving_variance"
  input: "conv_dw_1_bn/Const_3"
  attr {
    key: "_class"
    value {
      list {
        s: "loc:@conv_dw_1_bn/moving_variance"
      }
    }
  }
  attr {
    key: "dtype"
    value {
      type: DT_FLOAT
    }
  }
}
node {
  name: "conv_dw_1_bn/moving_variance/Read/ReadVariableOp"
  op: "ReadVariableOp"
  input: "conv_dw_1_bn/moving_variance"
  attr {
    key: "_class"
    value {
      list {
        s: "loc:@conv_dw_1_bn/moving_variance"
      }
    }
  }
  attr {
    key: "dtype"
    value {
      type: DT_FLOAT
    }
  }
}
node {
  name: "conv_dw_1_bn/ReadVariableOp"
  op: "ReadVariableOp"
  input: "conv_dw_1_bn/gamma"
  attr {
    key: "dtype"
    value {
      type: DT_FLOAT
    }
  }
}
node {
  name: "conv_dw_1_bn/ReadVariableOp_1"
  op: "ReadVariableOp"
  input: "conv_dw_1_bn/beta"
  attr {
    key: "dtype"
    value {
      type: DT_FLOAT
    }
  }
}
node {
  name: "conv_dw_1_bn/Const_4"
  op: "Const"
  attr {
    key: "dtype"
    value {
      type: DT_FLOAT
    }
  }
  attr {
    key: "value"
    value {
      tensor {
        dtype: DT_FLOAT
        tensor_shape {
          dim {
          }
        }
      }
    }
  }
}
node {
  name: "conv_dw_1_bn/Const_5"
  op: "Const"
  attr {
    key: "dtype"
    value {
      type: DT_FLOAT
    }
  }
  attr {
    key: "value"
    value {
      tensor {
        dtype: DT_FLOAT
        tensor_shape {
          dim {
          }
        }
      }
    }
  }
}
node {
  name: "conv_dw_1_bn/FusedBatchNorm"
  op: "FusedBatchNorm"
  input: "conv_dw_1/depthwise"
  input: "conv_dw_1_bn/ReadVariableOp"
  input: "conv_dw_1_bn/ReadVariableOp_1"
  input: "conv_dw_1_bn/Const_4"
  input: "conv_dw_1_bn/Const_5"
  attr {
    key: "T"
    value {
      type: DT_FLOAT
    }
  }
  attr {
    key: "data_format"
    value {
      s: "NHWC"
    }
  }
  attr {
    key: "epsilon"
    value {
      f: 0.0010000000474974513
    }
  }
  attr {
    key: "is_training"
    value {
      b: true
    }
  }
}
node {
  name: "conv_dw_1_bn/Shape"
  op: "Shape"
  input: "conv_dw_1/depthwise"
  attr {
    key: "T"
    value {
      type: DT_FLOAT
    }
  }
  attr {
    key: "out_type"
    value {
      type: DT_INT32
    }
  }
}
node {
  name: "conv_dw_1_bn/strided_slice/stack"
  op: "Const"
  attr {
    key: "dtype"
    value {
      type: DT_INT32
    }
  }
  attr {
    key: "value"
    value {
      tensor {
        dtype: DT_INT32
        tensor_shape {
          dim {
            size: 1
          }
        }
        int_val: 0
      }
    }
  }
}
node {
  name: "conv_dw_1_bn/strided_slice/stack_1"
  op: "Const"
  attr {
    key: "dtype"
    value {
      type: DT_INT32
    }
  }
  attr {
    key: "value"
    value {
      tensor {
        dtype: DT_INT32
        tensor_shape {
          dim {
            size: 1
          }
        }
        int_val: 1
      }
    }
  }
}
node {
  name: "conv_dw_1_bn/strided_slice/stack_2"
  op: "Const"
  attr {
    key: "dtype"
    value {
      type: DT_INT32
    }
  }
  attr {
    key: "value"
    value {
      tensor {
        dtype: DT_INT32
        tensor_shape {
          dim {
            size: 1
          }
        }
        int_val: 1
      }
    }
  }
}
node {
  name: "conv_dw_1_bn/strided_slice"
  op: "StridedSlice"
  input: "conv_dw_1_bn/Shape"
  input: "conv_dw_1_bn/strided_slice/stack"
  input: "conv_dw_1_bn/strided_slice/stack_1"
  input: "conv_dw_1_bn/strided_slice/stack_2"
  attr {
    key: "Index"
    value {
      type: DT_INT32
    }
  }
  attr {
    key: "T"
    value {
      type: DT_INT32
    }
  }
  attr {
    key: "begin_mask"
    value {
      i: 0
    }
  }
  attr {
    key: "ellipsis_mask"
    value {
      i: 0
    }
  }
  attr {
    key: "end_mask"
    value {
      i: 0
    }
  }
  attr {
    key: "new_axis_mask"
    value {
      i: 0
    }
  }
  attr {
    key: "shrink_axis_mask"
    value {
      i: 1
    }
  }
}
node {
  name: "conv_dw_1_bn/Shape_1"
  op: "Shape"
  input: "conv_dw_1/depthwise"
  attr {
    key: "T"
    value {
      type: DT_FLOAT
    }
  }
  attr {
    key: "out_type"
    value {
      type: DT_INT32
    }
  }
}
node {
  name: "conv_dw_1_bn/strided_slice_1/stack"
  op: "Const"
  attr {
    key: "dtype"
    value {
      type: DT_INT32
    }
  }
  attr {
    key: "value"
    value {
      tensor {
        dtype: DT_INT32
        tensor_shape {
          dim {
            size: 1
          }
        }
        int_val: 1
      }
    }
  }
}
node {
  name: "conv_dw_1_bn/strided_slice_1/stack_1"
  op: "Const"
  attr {
    key: "dtype"
    value {
      type: DT_INT32
    }
  }
  attr {
    key: "value"
    value {
      tensor {
        dtype: DT_INT32
        tensor_shape {
          dim {
            size: 1
          }
        }
        int_val: 2
      }
    }
  }
}
node {
  name: "conv_dw_1_bn/strided_slice_1/stack_2"
  op: "Const"
  attr {
    key: "dtype"
    value {
      type: DT_INT32
    }
  }
  attr {
    key: "value"
    value {
      tensor {
        dtype: DT_INT32
        tensor_shape {
          dim {
            size: 1
          }
        }
        int_val: 1
      }
    }
  }
}
node {
  name: "conv_dw_1_bn/strided_slice_1"
  op: "StridedSlice"
  input: "conv_dw_1_bn/Shape_1"
  input: "conv_dw_1_bn/strided_slice_1/stack"
  input: "conv_dw_1_bn/strided_slice_1/stack_1"
  input: "conv_dw_1_bn/strided_slice_1/stack_2"
  attr {
    key: "Index"
    value {
      type: DT_INT32
    }
  }
  attr {
    key: "T"
    value {
      type: DT_INT32
    }
  }
  attr {
    key: "begin_mask"
    value {
      i: 0
    }
  }
  attr {
    key: "ellipsis_mask"
    value {
      i: 0
    }
  }
  attr {
    key: "end_mask"
    value {
      i: 0
    }
  }
  attr {
    key: "new_axis_mask"
    value {
      i: 0
    }
  }
  attr {
    key: "shrink_axis_mask"
    value {
      i: 1
    }
  }
}
node {
  name: "conv_dw_1_bn/Shape_2"
  op: "Shape"
  input: "conv_dw_1/depthwise"
  attr {
    key: "T"
    value {
      type: DT_FLOAT
    }
  }
  attr {
    key: "out_type"
    value {
      type: DT_INT32
    }
  }
}
node {
  name: "conv_dw_1_bn/strided_slice_2/stack"
  op: "Const"
  attr {
    key: "dtype"
    value {
      type: DT_INT32
    }
  }
  attr {
    key: "value"
    value {
      tensor {
        dtype: DT_INT32
        tensor_shape {
          dim {
            size: 1
          }
        }
        int_val: 2
      }
    }
  }
}
node {
  name: "conv_dw_1_bn/strided_slice_2/stack_1"
  op: "Const"
  attr {
    key: "dtype"
    value {
      type: DT_INT32
    }
  }
  attr {
    key: "value"
    value {
      tensor {
        dtype: DT_INT32
        tensor_shape {
          dim {
            size: 1
          }
        }
        int_val: 3
      }
    }
  }
}
node {
  name: "conv_dw_1_bn/strided_slice_2/stack_2"
  op: "Const"
  attr {
    key: "dtype"
    value {
      type: DT_INT32
    }
  }
  attr {
    key: "value"
    value {
      tensor {
        dtype: DT_INT32
        tensor_shape {
          dim {
            size: 1
          }
        }
        int_val: 1
      }
    }
  }
}
node {
  name: "conv_dw_1_bn/strided_slice_2"
  op: "StridedSlice"
  input: "conv_dw_1_bn/Shape_2"
  input: "conv_dw_1_bn/strided_slice_2/stack"
  input: "conv_dw_1_bn/strided_slice_2/stack_1"
  input: "conv_dw_1_bn/strided_slice_2/stack_2"
  attr {
    key: "Index"
    value {
      type: DT_INT32
    }
  }
  attr {
    key: "T"
    value {
      type: DT_INT32
    }
  }
  attr {
    key: "begin_mask"
    value {
      i: 0
    }
  }
  attr {
    key: "ellipsis_mask"
    value {
      i: 0
    }
  }
  attr {
    key: "end_mask"
    value {
      i: 0
    }
  }
  attr {
    key: "new_axis_mask"
    value {
      i: 0
    }
  }
  attr {
    key: "shrink_axis_mask"
    value {
      i: 1
    }
  }
}
node {
  name: "conv_dw_1_bn/Rank/packed"
  op: "Pack"
  input: "conv_dw_1_bn/strided_slice"
  input: "conv_dw_1_bn/strided_slice_1"
  input: "conv_dw_1_bn/strided_slice_2"
  attr {
    key: "N"
    value {
      i: 3
    }
  }
  attr {
    key: "T"
    value {
      type: DT_INT32
    }
  }
  attr {
    key: "axis"
    value {
      i: 0
    }
  }
}
node {
  name: "conv_dw_1_bn/Rank"
  op: "Const"
  attr {
    key: "dtype"
    value {
      type: DT_INT32
    }
  }
  attr {
    key: "value"
    value {
      tensor {
        dtype: DT_INT32
        tensor_shape {
        }
        int_val: 1
      }
    }
  }
}
node {
  name: "conv_dw_1_bn/range/start"
  op: "Const"
  attr {
    key: "dtype"
    value {
      type: DT_INT32
    }
  }
  attr {
    key: "value"
    value {
      tensor {
        dtype: DT_INT32
        tensor_shape {
        }
        int_val: 0
      }
    }
  }
}
node {
  name: "conv_dw_1_bn/range/delta"
  op: "Const"
  attr {
    key: "dtype"
    value {
      type: DT_INT32
    }
  }
  attr {
    key: "value"
    value {
      tensor {
        dtype: DT_INT32
        tensor_shape {
        }
        int_val: 1
      }
    }
  }
}
node {
  name: "conv_dw_1_bn/range"
  op: "Range"
  input: "conv_dw_1_bn/range/start"
  input: "conv_dw_1_bn/Rank"
  input: "conv_dw_1_bn/range/delta"
  attr {
    key: "Tidx"
    value {
      type: DT_INT32
    }
  }
}
node {
  name: "conv_dw_1_bn/Prod/input"
  op: "Pack"
  input: "conv_dw_1_bn/strided_slice"
  input: "conv_dw_1_bn/strided_slice_1"
  input: "conv_dw_1_bn/strided_slice_2"
  attr {
    key: "N"
    value {
      i: 3
    }
  }
  attr {
    key: "T"
    value {
      type: DT_INT32
    }
  }
  attr {
    key: "axis"
    value {
      i: 0
    }
  }
}
node {
  name: "conv_dw_1_bn/Prod"
  op: "Prod"
  input: "conv_dw_1_bn/Prod/input"
  input: "conv_dw_1_bn/range"
  attr {
    key: "T"
    value {
      type: DT_INT32
    }
  }
  attr {
    key: "Tidx"
    value {
      type: DT_INT32
    }
  }
  attr {
    key: "keep_dims"
    value {
      b: false
    }
  }
}
node {
  name: "conv_dw_1_bn/Cast"
  op: "Cast"
  input: "conv_dw_1_bn/Prod"
  attr {
    key: "DstT"
    value {
      type: DT_FLOAT
    }
  }
  attr {
    key: "SrcT"
    value {
      type: DT_INT32
    }
  }
  attr {
    key: "Truncate"
    value {
      b: false
    }
  }
}
node {
  name: "conv_dw_1_bn/sub/y"
  op: "Const"
  attr {
    key: "dtype"
    value {
      type: DT_FLOAT
    }
  }
  attr {
    key: "value"
    value {
      tensor {
        dtype: DT_FLOAT
        tensor_shape {
        }
        float_val: 1.0010000467300415
      }
    }
  }
}
node {
  name: "conv_dw_1_bn/sub"
  op: "Sub"
  input: "conv_dw_1_bn/Cast"
  input: "conv_dw_1_bn/sub/y"
  attr {
    key: "T"
    value {
      type: DT_FLOAT
    }
  }
}
node {
  name: "conv_dw_1_bn/truediv"
  op: "RealDiv"
  input: "conv_dw_1_bn/Cast"
  input: "conv_dw_1_bn/sub"
  attr {
    key: "T"
    value {
      type: DT_FLOAT
    }
  }
}
node {
  name: "conv_dw_1_bn/mul"
  op: "Mul"
  input: "conv_dw_1_bn/FusedBatchNorm:2"
  input: "conv_dw_1_bn/truediv"
  attr {
    key: "T"
    value {
      type: DT_FLOAT
    }
  }
}
node {
  name: "conv_dw_1_bn/Const_6"
  op: "Const"
  attr {
    key: "_class"
    value {
      list {
        s: "loc:@conv_dw_1_bn/moving_mean"
      }
    }
  }
  attr {
    key: "dtype"
    value {
      type: DT_FLOAT
    }
  }
  attr {
    key: "value"
    value {
      tensor {
        dtype: DT_FLOAT
        tensor_shape {
        }
        float_val: 0.009999999776482582
      }
    }
  }
}
node {
  name: "conv_dw_1_bn/ReadVariableOp_2"
  op: "ReadVariableOp"
  input: "conv_dw_1_bn/moving_mean"
  attr {
    key: "dtype"
    value {
      type: DT_FLOAT
    }
  }
}
node {
  name: "conv_dw_1_bn/sub_1"
  op: "Sub"
  input: "conv_dw_1_bn/ReadVariableOp_2"
  input: "conv_dw_1_bn/FusedBatchNorm:1"
  attr {
    key: "T"
    value {
      type: DT_FLOAT
    }
  }
  attr {
    key: "_class"
    value {
      list {
        s: "loc:@conv_dw_1_bn/moving_mean"
      }
    }
  }
}
node {
  name: "conv_dw_1_bn/mul_1"
  op: "Mul"
  input: "conv_dw_1_bn/sub_1"
  input: "conv_dw_1_bn/Const_6"
  attr {
    key: "T"
    value {
      type: DT_FLOAT
    }
  }
  attr {
    key: "_class"
    value {
      list {
        s: "loc:@conv_dw_1_bn/moving_mean"
      }
    }
  }
}
node {
  name: "conv_dw_1_bn/AssignSubVariableOp"
  op: "AssignSubVariableOp"
  input: "conv_dw_1_bn/moving_mean"
  input: "conv_dw_1_bn/mul_1"
  attr {
    key: "_class"
    value {
      list {
        s: "loc:@conv_dw_1_bn/moving_mean"
      }
    }
  }
  attr {
    key: "dtype"
    value {
      type: DT_FLOAT
    }
  }
}
node {
  name: "conv_dw_1_bn/ReadVariableOp_3"
  op: "ReadVariableOp"
  input: "conv_dw_1_bn/moving_mean"
  input: "^conv_dw_1_bn/AssignSubVariableOp"
  attr {
    key: "_class"
    value {
      list {
        s: "loc:@conv_dw_1_bn/moving_mean"
      }
    }
  }
  attr {
    key: "dtype"
    value {
      type: DT_FLOAT
    }
  }
}
node {
  name: "conv_dw_1_bn/Const_7"
  op: "Const"
  attr {
    key: "_class"
    value {
      list {
        s: "loc:@conv_dw_1_bn/moving_variance"
      }
    }
  }
  attr {
    key: "dtype"
    value {
      type: DT_FLOAT
    }
  }
  attr {
    key: "value"
    value {
      tensor {
        dtype: DT_FLOAT
        tensor_shape {
        }
        float_val: 0.009999999776482582
      }
    }
  }
}
node {
  name: "conv_dw_1_bn/ReadVariableOp_4"
  op: "ReadVariableOp"
  input: "conv_dw_1_bn/moving_variance"
  attr {
    key: "dtype"
    value {
      type: DT_FLOAT
    }
  }
}
node {
  name: "conv_dw_1_bn/sub_2"
  op: "Sub"
  input: "conv_dw_1_bn/ReadVariableOp_4"
  input: "conv_dw_1_bn/mul"
  attr {
    key: "T"
    value {
      type: DT_FLOAT
    }
  }
  attr {
    key: "_class"
    value {
      list {
        s: "loc:@conv_dw_1_bn/moving_variance"
      }
    }
  }
}
node {
  name: "conv_dw_1_bn/mul_2"
  op: "Mul"
  input: "conv_dw_1_bn/sub_2"
  input: "conv_dw_1_bn/Const_7"
  attr {
    key: "T"
    value {
      type: DT_FLOAT
    }
  }
  attr {
    key: "_class"
    value {
      list {
        s: "loc:@conv_dw_1_bn/moving_variance"
      }
    }
  }
}
node {
  name: "conv_dw_1_bn/AssignSubVariableOp_1"
  op: "AssignSubVariableOp"
  input: "conv_dw_1_bn/moving_variance"
  input: "conv_dw_1_bn/mul_2"
  attr {
    key: "_class"
    value {
      list {
        s: "loc:@conv_dw_1_bn/moving_variance"
      }
    }
  }
  attr {
    key: "dtype"
    value {
      type: DT_FLOAT
    }
  }
}
node {
  name: "conv_dw_1_bn/ReadVariableOp_5"
  op: "ReadVariableOp"
  input: "conv_dw_1_bn/moving_variance"
  input: "^conv_dw_1_bn/AssignSubVariableOp_1"
  attr {
    key: "_class"
    value {
      list {
        s: "loc:@conv_dw_1_bn/moving_variance"
      }
    }
  }
  attr {
    key: "dtype"
    value {
      type: DT_FLOAT
    }
  }
}
node {
  name: "conv_dw_1_bn/ReadVariableOp_6"
  op: "ReadVariableOp"
  input: "conv_dw_1_bn/gamma"
  attr {
    key: "dtype"
    value {
      type: DT_FLOAT
    }
  }
}
node {
  name: "conv_dw_1_bn/ReadVariableOp_7"
  op: "ReadVariableOp"
  input: "conv_dw_1_bn/beta"
  attr {
    key: "dtype"
    value {
      type: DT_FLOAT
    }
  }
}
node {
  name: "conv_dw_1_bn/FusedBatchNorm_1/ReadVariableOp"
  op: "ReadVariableOp"
  input: "conv_dw_1_bn/moving_mean"
  attr {
    key: "dtype"
    value {
      type: DT_FLOAT
    }
  }
}
node {
  name: "conv_dw_1_bn/FusedBatchNorm_1/ReadVariableOp_1"
  op: "ReadVariableOp"
  input: "conv_dw_1_bn/moving_variance"
  attr {
    key: "dtype"
    value {
      type: DT_FLOAT
    }
  }
}
node {
  name: "conv_dw_1_bn/FusedBatchNorm_1"
  op: "FusedBatchNorm"
  input: "conv_dw_1/depthwise"
  input: "conv_dw_1_bn/ReadVariableOp_6"
  input: "conv_dw_1_bn/ReadVariableOp_7"
  input: "conv_dw_1_bn/FusedBatchNorm_1/ReadVariableOp"
  input: "conv_dw_1_bn/FusedBatchNorm_1/ReadVariableOp_1"
  attr {
    key: "T"
    value {
      type: DT_FLOAT
    }
  }
  attr {
    key: "data_format"
    value {
      s: "NHWC"
    }
  }
  attr {
    key: "epsilon"
    value {
      f: 0.0010000000474974513
    }
  }
  attr {
    key: "is_training"
    value {
      b: false
    }
  }
}
node {
  name: "conv_dw_1_relu/Relu6"
  op: "Relu6"
  input: "conv_dw_1_bn/FusedBatchNorm_1"
  attr {
    key: "T"
    value {
      type: DT_FLOAT
    }
  }
}
node {
  name: "conv_pw_1/random_uniform/shape"
  op: "Const"
  attr {
    key: "dtype"
    value {
      type: DT_INT32
    }
  }
  attr {
    key: "value"
    value {
      tensor {
        dtype: DT_INT32
        tensor_shape {
          dim {
            size: 4
          }
        }
        tensor_content: "\001\000\000\000\001\000\000\000\020\000\000\000 \000\000\000"
      }
    }
  }
}
node {
  name: "conv_pw_1/random_uniform/min"
  op: "Const"
  attr {
    key: "dtype"
    value {
      type: DT_FLOAT
    }
  }
  attr {
    key: "value"
    value {
      tensor {
        dtype: DT_FLOAT
        tensor_shape {
        }
        float_val: -0.3535533845424652
      }
    }
  }
}
node {
  name: "conv_pw_1/random_uniform/max"
  op: "Const"
  attr {
    key: "dtype"
    value {
      type: DT_FLOAT
    }
  }
  attr {
    key: "value"
    value {
      tensor {
        dtype: DT_FLOAT
        tensor_shape {
        }
        float_val: 0.3535533845424652
      }
    }
  }
}
node {
  name: "conv_pw_1/random_uniform/RandomUniform"
  op: "RandomUniform"
  input: "conv_pw_1/random_uniform/shape"
  attr {
    key: "T"
    value {
      type: DT_INT32
    }
  }
  attr {
    key: "dtype"
    value {
      type: DT_FLOAT
    }
  }
  attr {
    key: "seed"
    value {
      i: 87654321
    }
  }
  attr {
    key: "seed2"
    value {
      i: 640020
    }
  }
}
node {
  name: "conv_pw_1/random_uniform/sub"
  op: "Sub"
  input: "conv_pw_1/random_uniform/max"
  input: "conv_pw_1/random_uniform/min"
  attr {
    key: "T"
    value {
      type: DT_FLOAT
    }
  }
}
node {
  name: "conv_pw_1/random_uniform/mul"
  op: "Mul"
  input: "conv_pw_1/random_uniform/RandomUniform"
  input: "conv_pw_1/random_uniform/sub"
  attr {
    key: "T"
    value {
      type: DT_FLOAT
    }
  }
}
node {
  name: "conv_pw_1/random_uniform"
  op: "Add"
  input: "conv_pw_1/random_uniform/mul"
  input: "conv_pw_1/random_uniform/min"
  attr {
    key: "T"
    value {
      type: DT_FLOAT
    }
  }
}
node {
  name: "conv_pw_1/kernel"
  op: "VarHandleOp"
  attr {
    key: "_class"
    value {
      list {
        s: "loc:@conv_pw_1/kernel"
      }
    }
  }
  attr {
    key: "container"
    value {
      s: ""
    }
  }
  attr {
    key: "dtype"
    value {
      type: DT_FLOAT
    }
  }
  attr {
    key: "shape"
    value {
      shape {
        dim {
          size: 1
        }
        dim {
          size: 1
        }
        dim {
          size: 16
        }
        dim {
          size: 32
        }
      }
    }
  }
  attr {
    key: "shared_name"
    value {
      s: "conv_pw_1/kernel"
    }
  }
}
node {
  name: "conv_pw_1/kernel/IsInitialized/VarIsInitializedOp"
  op: "VarIsInitializedOp"
  input: "conv_pw_1/kernel"
}
node {
  name: "conv_pw_1/kernel/Assign"
  op: "AssignVariableOp"
  input: "conv_pw_1/kernel"
  input: "conv_pw_1/random_uniform"
  attr {
    key: "_class"
    value {
      list {
        s: "loc:@conv_pw_1/kernel"
      }
    }
  }
  attr {
    key: "dtype"
    value {
      type: DT_FLOAT
    }
  }
}
node {
  name: "conv_pw_1/kernel/Read/ReadVariableOp"
  op: "ReadVariableOp"
  input: "conv_pw_1/kernel"
  attr {
    key: "_class"
    value {
      list {
        s: "loc:@conv_pw_1/kernel"
      }
    }
  }
  attr {
    key: "dtype"
    value {
      type: DT_FLOAT
    }
  }
}
node {
  name: "conv_pw_1/convolution/ReadVariableOp"
  op: "ReadVariableOp"
  input: "conv_pw_1/kernel"
  attr {
    key: "dtype"
    value {
      type: DT_FLOAT
    }
  }
}
node {
  name: "conv_pw_1/convolution"
  op: "Conv2D"
  input: "conv_dw_1_relu/Relu6"
  input: "conv_pw_1/convolution/ReadVariableOp"
  attr {
    key: "T"
    value {
      type: DT_FLOAT
    }
  }
  attr {
    key: "data_format"
    value {
      s: "NHWC"
    }
  }
  attr {
    key: "dilations"
    value {
      list {
        i: 1
        i: 1
        i: 1
        i: 1
      }
    }
  }
  attr {
    key: "explicit_paddings"
    value {
      list {
      }
    }
  }
  attr {
    key: "padding"
    value {
      s: "SAME"
    }
  }
  attr {
    key: "strides"
    value {
      list {
        i: 1
        i: 1
        i: 1
        i: 1
      }
    }
  }
  attr {
    key: "use_cudnn_on_gpu"
    value {
      b: true
    }
  }
}
node {
  name: "conv_pw_1_bn/Const"
  op: "Const"
  attr {
    key: "dtype"
    value {
      type: DT_FLOAT
    }
  }
  attr {
    key: "value"
    value {
      tensor {
        dtype: DT_FLOAT
        tensor_shape {
          dim {
            size: 32
          }
        }
        float_val: 1.0
      }
    }
  }
}
node {
  name: "conv_pw_1_bn/gamma"
  op: "VarHandleOp"
  attr {
    key: "_class"
    value {
      list {
        s: "loc:@conv_pw_1_bn/gamma"
      }
    }
  }
  attr {
    key: "container"
    value {
      s: ""
    }
  }
  attr {
    key: "dtype"
    value {
      type: DT_FLOAT
    }
  }
  attr {
    key: "shape"
    value {
      shape {
        dim {
          size: 32
        }
      }
    }
  }
  attr {
    key: "shared_name"
    value {
      s: "conv_pw_1_bn/gamma"
    }
  }
}
node {
  name: "conv_pw_1_bn/gamma/IsInitialized/VarIsInitializedOp"
  op: "VarIsInitializedOp"
  input: "conv_pw_1_bn/gamma"
}
node {
  name: "conv_pw_1_bn/gamma/Assign"
  op: "AssignVariableOp"
  input: "conv_pw_1_bn/gamma"
  input: "conv_pw_1_bn/Const"
  attr {
    key: "_class"
    value {
      list {
        s: "loc:@conv_pw_1_bn/gamma"
      }
    }
  }
  attr {
    key: "dtype"
    value {
      type: DT_FLOAT
    }
  }
}
node {
  name: "conv_pw_1_bn/gamma/Read/ReadVariableOp"
  op: "ReadVariableOp"
  input: "conv_pw_1_bn/gamma"
  attr {
    key: "_class"
    value {
      list {
        s: "loc:@conv_pw_1_bn/gamma"
      }
    }
  }
  attr {
    key: "dtype"
    value {
      type: DT_FLOAT
    }
  }
}
node {
  name: "conv_pw_1_bn/Const_1"
  op: "Const"
  attr {
    key: "dtype"
    value {
      type: DT_FLOAT
    }
  }
  attr {
    key: "value"
    value {
      tensor {
        dtype: DT_FLOAT
        tensor_shape {
          dim {
            size: 32
          }
        }
        float_val: 0.0
      }
    }
  }
}
node {
  name: "conv_pw_1_bn/beta"
  op: "VarHandleOp"
  attr {
    key: "_class"
    value {
      list {
        s: "loc:@conv_pw_1_bn/beta"
      }
    }
  }
  attr {
    key: "container"
    value {
      s: ""
    }
  }
  attr {
    key: "dtype"
    value {
      type: DT_FLOAT
    }
  }
  attr {
    key: "shape"
    value {
      shape {
        dim {
          size: 32
        }
      }
    }
  }
  attr {
    key: "shared_name"
    value {
      s: "conv_pw_1_bn/beta"
    }
  }
}
node {
  name: "conv_pw_1_bn/beta/IsInitialized/VarIsInitializedOp"
  op: "VarIsInitializedOp"
  input: "conv_pw_1_bn/beta"
}
node {
  name: "conv_pw_1_bn/beta/Assign"
  op: "AssignVariableOp"
  input: "conv_pw_1_bn/beta"
  input: "conv_pw_1_bn/Const_1"
  attr {
    key: "_class"
    value {
      list {
        s: "loc:@conv_pw_1_bn/beta"
      }
    }
  }
  attr {
    key: "dtype"
    value {
      type: DT_FLOAT
    }
  }
}
node {
  name: "conv_pw_1_bn/beta/Read/ReadVariableOp"
  op: "ReadVariableOp"
  input: "conv_pw_1_bn/beta"
  attr {
    key: "_class"
    value {
      list {
        s: "loc:@conv_pw_1_bn/beta"
      }
    }
  }
  attr {
    key: "dtype"
    value {
      type: DT_FLOAT
    }
  }
}
node {
  name: "conv_pw_1_bn/Const_2"
  op: "Const"
  attr {
    key: "dtype"
    value {
      type: DT_FLOAT
    }
  }
  attr {
    key: "value"
    value {
      tensor {
        dtype: DT_FLOAT
        tensor_shape {
          dim {
            size: 32
          }
        }
        float_val: 0.0
      }
    }
  }
}
node {
  name: "conv_pw_1_bn/moving_mean"
  op: "VarHandleOp"
  attr {
    key: "_class"
    value {
      list {
        s: "loc:@conv_pw_1_bn/moving_mean"
      }
    }
  }
  attr {
    key: "container"
    value {
      s: ""
    }
  }
  attr {
    key: "dtype"
    value {
      type: DT_FLOAT
    }
  }
  attr {
    key: "shape"
    value {
      shape {
        dim {
          size: 32
        }
      }
    }
  }
  attr {
    key: "shared_name"
    value {
      s: "conv_pw_1_bn/moving_mean"
    }
  }
}
node {
  name: "conv_pw_1_bn/moving_mean/IsInitialized/VarIsInitializedOp"
  op: "VarIsInitializedOp"
  input: "conv_pw_1_bn/moving_mean"
}
node {
  name: "conv_pw_1_bn/moving_mean/Assign"
  op: "AssignVariableOp"
  input: "conv_pw_1_bn/moving_mean"
  input: "conv_pw_1_bn/Const_2"
  attr {
    key: "_class"
    value {
      list {
        s: "loc:@conv_pw_1_bn/moving_mean"
      }
    }
  }
  attr {
    key: "dtype"
    value {
      type: DT_FLOAT
    }
  }
}
node {
  name: "conv_pw_1_bn/moving_mean/Read/ReadVariableOp"
  op: "ReadVariableOp"
  input: "conv_pw_1_bn/moving_mean"
  attr {
    key: "_class"
    value {
      list {
        s: "loc:@conv_pw_1_bn/moving_mean"
      }
    }
  }
  attr {
    key: "dtype"
    value {
      type: DT_FLOAT
    }
  }
}
node {
  name: "conv_pw_1_bn/Const_3"
  op: "Const"
  attr {
    key: "dtype"
    value {
      type: DT_FLOAT
    }
  }
  attr {
    key: "value"
    value {
      tensor {
        dtype: DT_FLOAT
        tensor_shape {
          dim {
            size: 32
          }
        }
        float_val: 1.0
      }
    }
  }
}
node {
  name: "conv_pw_1_bn/moving_variance"
  op: "VarHandleOp"
  attr {
    key: "_class"
    value {
      list {
        s: "loc:@conv_pw_1_bn/moving_variance"
      }
    }
  }
  attr {
    key: "container"
    value {
      s: ""
    }
  }
  attr {
    key: "dtype"
    value {
      type: DT_FLOAT
    }
  }
  attr {
    key: "shape"
    value {
      shape {
        dim {
          size: 32
        }
      }
    }
  }
  attr {
    key: "shared_name"
    value {
      s: "conv_pw_1_bn/moving_variance"
    }
  }
}
node {
  name: "conv_pw_1_bn/moving_variance/IsInitialized/VarIsInitializedOp"
  op: "VarIsInitializedOp"
  input: "conv_pw_1_bn/moving_variance"
}
node {
  name: "conv_pw_1_bn/moving_variance/Assign"
  op: "AssignVariableOp"
  input: "conv_pw_1_bn/moving_variance"
  input: "conv_pw_1_bn/Const_3"
  attr {
    key: "_class"
    value {
      list {
        s: "loc:@conv_pw_1_bn/moving_variance"
      }
    }
  }
  attr {
    key: "dtype"
    value {
      type: DT_FLOAT
    }
  }
}
node {
  name: "conv_pw_1_bn/moving_variance/Read/ReadVariableOp"
  op: "ReadVariableOp"
  input: "conv_pw_1_bn/moving_variance"
  attr {
    key: "_class"
    value {
      list {
        s: "loc:@conv_pw_1_bn/moving_variance"
      }
    }
  }
  attr {
    key: "dtype"
    value {
      type: DT_FLOAT
    }
  }
}
node {
  name: "conv_pw_1_bn/ReadVariableOp"
  op: "ReadVariableOp"
  input: "conv_pw_1_bn/gamma"
  attr {
    key: "dtype"
    value {
      type: DT_FLOAT
    }
  }
}
node {
  name: "conv_pw_1_bn/ReadVariableOp_1"
  op: "ReadVariableOp"
  input: "conv_pw_1_bn/beta"
  attr {
    key: "dtype"
    value {
      type: DT_FLOAT
    }
  }
}
node {
  name: "conv_pw_1_bn/Const_4"
  op: "Const"
  attr {
    key: "dtype"
    value {
      type: DT_FLOAT
    }
  }
  attr {
    key: "value"
    value {
      tensor {
        dtype: DT_FLOAT
        tensor_shape {
          dim {
          }
        }
      }
    }
  }
}
node {
  name: "conv_pw_1_bn/Const_5"
  op: "Const"
  attr {
    key: "dtype"
    value {
      type: DT_FLOAT
    }
  }
  attr {
    key: "value"
    value {
      tensor {
        dtype: DT_FLOAT
        tensor_shape {
          dim {
          }
        }
      }
    }
  }
}
node {
  name: "conv_pw_1_bn/FusedBatchNorm"
  op: "FusedBatchNorm"
  input: "conv_pw_1/convolution"
  input: "conv_pw_1_bn/ReadVariableOp"
  input: "conv_pw_1_bn/ReadVariableOp_1"
  input: "conv_pw_1_bn/Const_4"
  input: "conv_pw_1_bn/Const_5"
  attr {
    key: "T"
    value {
      type: DT_FLOAT
    }
  }
  attr {
    key: "data_format"
    value {
      s: "NHWC"
    }
  }
  attr {
    key: "epsilon"
    value {
      f: 0.0010000000474974513
    }
  }
  attr {
    key: "is_training"
    value {
      b: true
    }
  }
}
node {
  name: "conv_pw_1_bn/Shape"
  op: "Shape"
  input: "conv_pw_1/convolution"
  attr {
    key: "T"
    value {
      type: DT_FLOAT
    }
  }
  attr {
    key: "out_type"
    value {
      type: DT_INT32
    }
  }
}
node {
  name: "conv_pw_1_bn/strided_slice/stack"
  op: "Const"
  attr {
    key: "dtype"
    value {
      type: DT_INT32
    }
  }
  attr {
    key: "value"
    value {
      tensor {
        dtype: DT_INT32
        tensor_shape {
          dim {
            size: 1
          }
        }
        int_val: 0
      }
    }
  }
}
node {
  name: "conv_pw_1_bn/strided_slice/stack_1"
  op: "Const"
  attr {
    key: "dtype"
    value {
      type: DT_INT32
    }
  }
  attr {
    key: "value"
    value {
      tensor {
        dtype: DT_INT32
        tensor_shape {
          dim {
            size: 1
          }
        }
        int_val: 1
      }
    }
  }
}
node {
  name: "conv_pw_1_bn/strided_slice/stack_2"
  op: "Const"
  attr {
    key: "dtype"
    value {
      type: DT_INT32
    }
  }
  attr {
    key: "value"
    value {
      tensor {
        dtype: DT_INT32
        tensor_shape {
          dim {
            size: 1
          }
        }
        int_val: 1
      }
    }
  }
}
node {
  name: "conv_pw_1_bn/strided_slice"
  op: "StridedSlice"
  input: "conv_pw_1_bn/Shape"
  input: "conv_pw_1_bn/strided_slice/stack"
  input: "conv_pw_1_bn/strided_slice/stack_1"
  input: "conv_pw_1_bn/strided_slice/stack_2"
  attr {
    key: "Index"
    value {
      type: DT_INT32
    }
  }
  attr {
    key: "T"
    value {
      type: DT_INT32
    }
  }
  attr {
    key: "begin_mask"
    value {
      i: 0
    }
  }
  attr {
    key: "ellipsis_mask"
    value {
      i: 0
    }
  }
  attr {
    key: "end_mask"
    value {
      i: 0
    }
  }
  attr {
    key: "new_axis_mask"
    value {
      i: 0
    }
  }
  attr {
    key: "shrink_axis_mask"
    value {
      i: 1
    }
  }
}
node {
  name: "conv_pw_1_bn/Shape_1"
  op: "Shape"
  input: "conv_pw_1/convolution"
  attr {
    key: "T"
    value {
      type: DT_FLOAT
    }
  }
  attr {
    key: "out_type"
    value {
      type: DT_INT32
    }
  }
}
node {
  name: "conv_pw_1_bn/strided_slice_1/stack"
  op: "Const"
  attr {
    key: "dtype"
    value {
      type: DT_INT32
    }
  }
  attr {
    key: "value"
    value {
      tensor {
        dtype: DT_INT32
        tensor_shape {
          dim {
            size: 1
          }
        }
        int_val: 1
      }
    }
  }
}
node {
  name: "conv_pw_1_bn/strided_slice_1/stack_1"
  op: "Const"
  attr {
    key: "dtype"
    value {
      type: DT_INT32
    }
  }
  attr {
    key: "value"
    value {
      tensor {
        dtype: DT_INT32
        tensor_shape {
          dim {
            size: 1
          }
        }
        int_val: 2
      }
    }
  }
}
node {
  name: "conv_pw_1_bn/strided_slice_1/stack_2"
  op: "Const"
  attr {
    key: "dtype"
    value {
      type: DT_INT32
    }
  }
  attr {
    key: "value"
    value {
      tensor {
        dtype: DT_INT32
        tensor_shape {
          dim {
            size: 1
          }
        }
        int_val: 1
      }
    }
  }
}
node {
  name: "conv_pw_1_bn/strided_slice_1"
  op: "StridedSlice"
  input: "conv_pw_1_bn/Shape_1"
  input: "conv_pw_1_bn/strided_slice_1/stack"
  input: "conv_pw_1_bn/strided_slice_1/stack_1"
  input: "conv_pw_1_bn/strided_slice_1/stack_2"
  attr {
    key: "Index"
    value {
      type: DT_INT32
    }
  }
  attr {
    key: "T"
    value {
      type: DT_INT32
    }
  }
  attr {
    key: "begin_mask"
    value {
      i: 0
    }
  }
  attr {
    key: "ellipsis_mask"
    value {
      i: 0
    }
  }
  attr {
    key: "end_mask"
    value {
      i: 0
    }
  }
  attr {
    key: "new_axis_mask"
    value {
      i: 0
    }
  }
  attr {
    key: "shrink_axis_mask"
    value {
      i: 1
    }
  }
}
node {
  name: "conv_pw_1_bn/Shape_2"
  op: "Shape"
  input: "conv_pw_1/convolution"
  attr {
    key: "T"
    value {
      type: DT_FLOAT
    }
  }
  attr {
    key: "out_type"
    value {
      type: DT_INT32
    }
  }
}
node {
  name: "conv_pw_1_bn/strided_slice_2/stack"
  op: "Const"
  attr {
    key: "dtype"
    value {
      type: DT_INT32
    }
  }
  attr {
    key: "value"
    value {
      tensor {
        dtype: DT_INT32
        tensor_shape {
          dim {
            size: 1
          }
        }
        int_val: 2
      }
    }
  }
}
node {
  name: "conv_pw_1_bn/strided_slice_2/stack_1"
  op: "Const"
  attr {
    key: "dtype"
    value {
      type: DT_INT32
    }
  }
  attr {
    key: "value"
    value {
      tensor {
        dtype: DT_INT32
        tensor_shape {
          dim {
            size: 1
          }
        }
        int_val: 3
      }
    }
  }
}
node {
  name: "conv_pw_1_bn/strided_slice_2/stack_2"
  op: "Const"
  attr {
    key: "dtype"
    value {
      type: DT_INT32
    }
  }
  attr {
    key: "value"
    value {
      tensor {
        dtype: DT_INT32
        tensor_shape {
          dim {
            size: 1
          }
        }
        int_val: 1
      }
    }
  }
}
node {
  name: "conv_pw_1_bn/strided_slice_2"
  op: "StridedSlice"
  input: "conv_pw_1_bn/Shape_2"
  input: "conv_pw_1_bn/strided_slice_2/stack"
  input: "conv_pw_1_bn/strided_slice_2/stack_1"
  input: "conv_pw_1_bn/strided_slice_2/stack_2"
  attr {
    key: "Index"
    value {
      type: DT_INT32
    }
  }
  attr {
    key: "T"
    value {
      type: DT_INT32
    }
  }
  attr {
    key: "begin_mask"
    value {
      i: 0
    }
  }
  attr {
    key: "ellipsis_mask"
    value {
      i: 0
    }
  }
  attr {
    key: "end_mask"
    value {
      i: 0
    }
  }
  attr {
    key: "new_axis_mask"
    value {
      i: 0
    }
  }
  attr {
    key: "shrink_axis_mask"
    value {
      i: 1
    }
  }
}
node {
  name: "conv_pw_1_bn/Rank/packed"
  op: "Pack"
  input: "conv_pw_1_bn/strided_slice"
  input: "conv_pw_1_bn/strided_slice_1"
  input: "conv_pw_1_bn/strided_slice_2"
  attr {
    key: "N"
    value {
      i: 3
    }
  }
  attr {
    key: "T"
    value {
      type: DT_INT32
    }
  }
  attr {
    key: "axis"
    value {
      i: 0
    }
  }
}
node {
  name: "conv_pw_1_bn/Rank"
  op: "Const"
  attr {
    key: "dtype"
    value {
      type: DT_INT32
    }
  }
  attr {
    key: "value"
    value {
      tensor {
        dtype: DT_INT32
        tensor_shape {
        }
        int_val: 1
      }
    }
  }
}
node {
  name: "conv_pw_1_bn/range/start"
  op: "Const"
  attr {
    key: "dtype"
    value {
      type: DT_INT32
    }
  }
  attr {
    key: "value"
    value {
      tensor {
        dtype: DT_INT32
        tensor_shape {
        }
        int_val: 0
      }
    }
  }
}
node {
  name: "conv_pw_1_bn/range/delta"
  op: "Const"
  attr {
    key: "dtype"
    value {
      type: DT_INT32
    }
  }
  attr {
    key: "value"
    value {
      tensor {
        dtype: DT_INT32
        tensor_shape {
        }
        int_val: 1
      }
    }
  }
}
node {
  name: "conv_pw_1_bn/range"
  op: "Range"
  input: "conv_pw_1_bn/range/start"
  input: "conv_pw_1_bn/Rank"
  input: "conv_pw_1_bn/range/delta"
  attr {
    key: "Tidx"
    value {
      type: DT_INT32
    }
  }
}
node {
  name: "conv_pw_1_bn/Prod/input"
  op: "Pack"
  input: "conv_pw_1_bn/strided_slice"
  input: "conv_pw_1_bn/strided_slice_1"
  input: "conv_pw_1_bn/strided_slice_2"
  attr {
    key: "N"
    value {
      i: 3
    }
  }
  attr {
    key: "T"
    value {
      type: DT_INT32
    }
  }
  attr {
    key: "axis"
    value {
      i: 0
    }
  }
}
node {
  name: "conv_pw_1_bn/Prod"
  op: "Prod"
  input: "conv_pw_1_bn/Prod/input"
  input: "conv_pw_1_bn/range"
  attr {
    key: "T"
    value {
      type: DT_INT32
    }
  }
  attr {
    key: "Tidx"
    value {
      type: DT_INT32
    }
  }
  attr {
    key: "keep_dims"
    value {
      b: false
    }
  }
}
node {
  name: "conv_pw_1_bn/Cast"
  op: "Cast"
  input: "conv_pw_1_bn/Prod"
  attr {
    key: "DstT"
    value {
      type: DT_FLOAT
    }
  }
  attr {
    key: "SrcT"
    value {
      type: DT_INT32
    }
  }
  attr {
    key: "Truncate"
    value {
      b: false
    }
  }
}
node {
  name: "conv_pw_1_bn/sub/y"
  op: "Const"
  attr {
    key: "dtype"
    value {
      type: DT_FLOAT
    }
  }
  attr {
    key: "value"
    value {
      tensor {
        dtype: DT_FLOAT
        tensor_shape {
        }
        float_val: 1.0010000467300415
      }
    }
  }
}
node {
  name: "conv_pw_1_bn/sub"
  op: "Sub"
  input: "conv_pw_1_bn/Cast"
  input: "conv_pw_1_bn/sub/y"
  attr {
    key: "T"
    value {
      type: DT_FLOAT
    }
  }
}
node {
  name: "conv_pw_1_bn/truediv"
  op: "RealDiv"
  input: "conv_pw_1_bn/Cast"
  input: "conv_pw_1_bn/sub"
  attr {
    key: "T"
    value {
      type: DT_FLOAT
    }
  }
}
node {
  name: "conv_pw_1_bn/mul"
  op: "Mul"
  input: "conv_pw_1_bn/FusedBatchNorm:2"
  input: "conv_pw_1_bn/truediv"
  attr {
    key: "T"
    value {
      type: DT_FLOAT
    }
  }
}
node {
  name: "conv_pw_1_bn/Const_6"
  op: "Const"
  attr {
    key: "_class"
    value {
      list {
        s: "loc:@conv_pw_1_bn/moving_mean"
      }
    }
  }
  attr {
    key: "dtype"
    value {
      type: DT_FLOAT
    }
  }
  attr {
    key: "value"
    value {
      tensor {
        dtype: DT_FLOAT
        tensor_shape {
        }
        float_val: 0.009999999776482582
      }
    }
  }
}
node {
  name: "conv_pw_1_bn/ReadVariableOp_2"
  op: "ReadVariableOp"
  input: "conv_pw_1_bn/moving_mean"
  attr {
    key: "dtype"
    value {
      type: DT_FLOAT
    }
  }
}
node {
  name: "conv_pw_1_bn/sub_1"
  op: "Sub"
  input: "conv_pw_1_bn/ReadVariableOp_2"
  input: "conv_pw_1_bn/FusedBatchNorm:1"
  attr {
    key: "T"
    value {
      type: DT_FLOAT
    }
  }
  attr {
    key: "_class"
    value {
      list {
        s: "loc:@conv_pw_1_bn/moving_mean"
      }
    }
  }
}
node {
  name: "conv_pw_1_bn/mul_1"
  op: "Mul"
  input: "conv_pw_1_bn/sub_1"
  input: "conv_pw_1_bn/Const_6"
  attr {
    key: "T"
    value {
      type: DT_FLOAT
    }
  }
  attr {
    key: "_class"
    value {
      list {
        s: "loc:@conv_pw_1_bn/moving_mean"
      }
    }
  }
}
node {
  name: "conv_pw_1_bn/AssignSubVariableOp"
  op: "AssignSubVariableOp"
  input: "conv_pw_1_bn/moving_mean"
  input: "conv_pw_1_bn/mul_1"
  attr {
    key: "_class"
    value {
      list {
        s: "loc:@conv_pw_1_bn/moving_mean"
      }
    }
  }
  attr {
    key: "dtype"
    value {
      type: DT_FLOAT
    }
  }
}
node {
  name: "conv_pw_1_bn/ReadVariableOp_3"
  op: "ReadVariableOp"
  input: "conv_pw_1_bn/moving_mean"
  input: "^conv_pw_1_bn/AssignSubVariableOp"
  attr {
    key: "_class"
    value {
      list {
        s: "loc:@conv_pw_1_bn/moving_mean"
      }
    }
  }
  attr {
    key: "dtype"
    value {
      type: DT_FLOAT
    }
  }
}
node {
  name: "conv_pw_1_bn/Const_7"
  op: "Const"
  attr {
    key: "_class"
    value {
      list {
        s: "loc:@conv_pw_1_bn/moving_variance"
      }
    }
  }
  attr {
    key: "dtype"
    value {
      type: DT_FLOAT
    }
  }
  attr {
    key: "value"
    value {
      tensor {
        dtype: DT_FLOAT
        tensor_shape {
        }
        float_val: 0.009999999776482582
      }
    }
  }
}
node {
  name: "conv_pw_1_bn/ReadVariableOp_4"
  op: "ReadVariableOp"
  input: "conv_pw_1_bn/moving_variance"
  attr {
    key: "dtype"
    value {
      type: DT_FLOAT
    }
  }
}
node {
  name: "conv_pw_1_bn/sub_2"
  op: "Sub"
  input: "conv_pw_1_bn/ReadVariableOp_4"
  input: "conv_pw_1_bn/mul"
  attr {
    key: "T"
    value {
      type: DT_FLOAT
    }
  }
  attr {
    key: "_class"
    value {
      list {
        s: "loc:@conv_pw_1_bn/moving_variance"
      }
    }
  }
}
node {
  name: "conv_pw_1_bn/mul_2"
  op: "Mul"
  input: "conv_pw_1_bn/sub_2"
  input: "conv_pw_1_bn/Const_7"
  attr {
    key: "T"
    value {
      type: DT_FLOAT
    }
  }
  attr {
    key: "_class"
    value {
      list {
        s: "loc:@conv_pw_1_bn/moving_variance"
      }
    }
  }
}
node {
  name: "conv_pw_1_bn/AssignSubVariableOp_1"
  op: "AssignSubVariableOp"
  input: "conv_pw_1_bn/moving_variance"
  input: "conv_pw_1_bn/mul_2"
  attr {
    key: "_class"
    value {
      list {
        s: "loc:@conv_pw_1_bn/moving_variance"
      }
    }
  }
  attr {
    key: "dtype"
    value {
      type: DT_FLOAT
    }
  }
}
node {
  name: "conv_pw_1_bn/ReadVariableOp_5"
  op: "ReadVariableOp"
  input: "conv_pw_1_bn/moving_variance"
  input: "^conv_pw_1_bn/AssignSubVariableOp_1"
  attr {
    key: "_class"
    value {
      list {
        s: "loc:@conv_pw_1_bn/moving_variance"
      }
    }
  }
  attr {
    key: "dtype"
    value {
      type: DT_FLOAT
    }
  }
}
node {
  name: "conv_pw_1_bn/ReadVariableOp_6"
  op: "ReadVariableOp"
  input: "conv_pw_1_bn/gamma"
  attr {
    key: "dtype"
    value {
      type: DT_FLOAT
    }
  }
}
node {
  name: "conv_pw_1_bn/ReadVariableOp_7"
  op: "ReadVariableOp"
  input: "conv_pw_1_bn/beta"
  attr {
    key: "dtype"
    value {
      type: DT_FLOAT
    }
  }
}
node {
  name: "conv_pw_1_bn/FusedBatchNorm_1/ReadVariableOp"
  op: "ReadVariableOp"
  input: "conv_pw_1_bn/moving_mean"
  attr {
    key: "dtype"
    value {
      type: DT_FLOAT
    }
  }
}
node {
  name: "conv_pw_1_bn/FusedBatchNorm_1/ReadVariableOp_1"
  op: "ReadVariableOp"
  input: "conv_pw_1_bn/moving_variance"
  attr {
    key: "dtype"
    value {
      type: DT_FLOAT
    }
  }
}
node {
  name: "conv_pw_1_bn/FusedBatchNorm_1"
  op: "FusedBatchNorm"
  input: "conv_pw_1/convolution"
  input: "conv_pw_1_bn/ReadVariableOp_6"
  input: "conv_pw_1_bn/ReadVariableOp_7"
  input: "conv_pw_1_bn/FusedBatchNorm_1/ReadVariableOp"
  input: "conv_pw_1_bn/FusedBatchNorm_1/ReadVariableOp_1"
  attr {
    key: "T"
    value {
      type: DT_FLOAT
    }
  }
  attr {
    key: "data_format"
    value {
      s: "NHWC"
    }
  }
  attr {
    key: "epsilon"
    value {
      f: 0.0010000000474974513
    }
  }
  attr {
    key: "is_training"
    value {
      b: false
    }
  }
}
node {
  name: "conv_pw_1_relu/Relu6"
  op: "Relu6"
  input: "conv_pw_1_bn/FusedBatchNorm_1"
  attr {
    key: "T"
    value {
      type: DT_FLOAT
    }
  }
}
node {
  name: "conv_pad_2/Pad/paddings"
  op: "Const"
  attr {
    key: "dtype"
    value {
      type: DT_INT32
    }
  }
  attr {
    key: "value"
    value {
      tensor {
        dtype: DT_INT32
        tensor_shape {
          dim {
            size: 4
          }
          dim {
            size: 2
          }
        }
        tensor_content: "…"
      }
    }
  }
}
node {
  name: "conv_pad_2/Pad"
  op: "Pad"
  input: "conv_pw_1_relu/Relu6"
  input: "conv_pad_2/Pad/paddings"
  attr {
    key: "T"
    value {
      type: DT_FLOAT
    }
  }
  attr {
    key: "Tpaddings"
    value {
      type: DT_INT32
    }
  }
}
node {
  name: "conv_dw_2/random_uniform/shape"
  op: "Const"
  attr {
    key: "dtype"
    value {
      type: DT_INT32
    }
  }
  attr {
    key: "value"
    value {
      tensor {
        dtype: DT_INT32
        tensor_shape {
          dim {
            size: 4
          }
        }
        tensor_content: "\003\000\000\000\003\000\000\000 \000\000\000\001\000\000\000"
      }
    }
  }
}
node {
  name: "conv_dw_2/random_uniform/min"
  op: "Const"
  attr {
    key: "dtype"
    value {
      type: DT_FLOAT
    }
  }
  attr {
    key: "value"
    value {
      tensor {
        dtype: DT_FLOAT
        tensor_shape {
        }
        float_val: -0.14213381707668304
      }
    }
  }
}
node {
  name: "conv_dw_2/random_uniform/max"
  op: "Const"
  attr {
    key: "dtype"
    value {
      type: DT_FLOAT
    }
  }
  attr {
    key: "value"
    value {
      tensor {
        dtype: DT_FLOAT
        tensor_shape {
        }
        float_val: 0.14213381707668304
      }
    }
  }
}
node {
  name: "conv_dw_2/random_uniform/RandomUniform"
  op: "RandomUniform"
  input: "conv_dw_2/random_uniform/shape"
  attr {
    key: "T"
    value {
      type: DT_INT32
    }
  }
  attr {
    key: "dtype"
    value {
      type: DT_FLOAT
    }
  }
  attr {
    key: "seed"
    value {
      i: 87654321
    }
  }
  attr {
    key: "seed2"
    value {
      i: 6586150
    }
  }
}
node {
  name: "conv_dw_2/random_uniform/sub"
  op: "Sub"
  input: "conv_dw_2/random_uniform/max"
  input: "conv_dw_2/random_uniform/min"
  attr {
    key: "T"
    value {
      type: DT_FLOAT
    }
  }
}
node {
  name: "conv_dw_2/random_uniform/mul"
  op: "Mul"
  input: "conv_dw_2/random_uniform/RandomUniform"
  input: "conv_dw_2/random_uniform/sub"
  attr {
    key: "T"
    value {
      type: DT_FLOAT
    }
  }
}
node {
  name: "conv_dw_2/random_uniform"
  op: "Add"
  input: "conv_dw_2/random_uniform/mul"
  input: "conv_dw_2/random_uniform/min"
  attr {
    key: "T"
    value {
      type: DT_FLOAT
    }
  }
}
node {
  name: "conv_dw_2/depthwise_kernel"
  op: "VarHandleOp"
  attr {
    key: "_class"
    value {
      list {
        s: "loc:@conv_dw_2/depthwise_kernel"
      }
    }
  }
  attr {
    key: "container"
    value {
      s: ""
    }
  }
  attr {
    key: "dtype"
    value {
      type: DT_FLOAT
    }
  }
  attr {
    key: "shape"
    value {
      shape {
        dim {
          size: 3
        }
        dim {
          size: 3
        }
        dim {
          size: 32
        }
        dim {
          size: 1
        }
      }
    }
  }
  attr {
    key: "shared_name"
    value {
      s: "conv_dw_2/depthwise_kernel"
    }
  }
}
node {
  name: "conv_dw_2/depthwise_kernel/IsInitialized/VarIsInitializedOp"
  op: "VarIsInitializedOp"
  input: "conv_dw_2/depthwise_kernel"
}
node {
  name: "conv_dw_2/depthwise_kernel/Assign"
  op: "AssignVariableOp"
  input: "conv_dw_2/depthwise_kernel"
  input: "conv_dw_2/random_uniform"
  attr {
    key: "_class"
    value {
      list {
        s: "loc:@conv_dw_2/depthwise_kernel"
      }
    }
  }
  attr {
    key: "dtype"
    value {
      type: DT_FLOAT
    }
  }
}
node {
  name: "conv_dw_2/depthwise_kernel/Read/ReadVariableOp"
  op: "ReadVariableOp"
  input: "conv_dw_2/depthwise_kernel"
  attr {
    key: "_class"
    value {
      list {
        s: "loc:@conv_dw_2/depthwise_kernel"
      }
    }
  }
  attr {
    key: "dtype"
    value {
      type: DT_FLOAT
    }
  }
}
node {
  name: "conv_dw_2/depthwise/ReadVariableOp"
  op: "ReadVariableOp"
  input: "conv_dw_2/depthwise_kernel"
  attr {
    key: "dtype"
    value {
      type: DT_FLOAT
    }
  }
}
node {
  name: "conv_dw_2/depthwise/Shape"
  op: "Const"
  attr {
    key: "dtype"
    value {
      type: DT_INT32
    }
  }
  attr {
    key: "value"
    value {
      tensor {
        dtype: DT_INT32
        tensor_shape {
          dim {
            size: 4
          }
        }
        tensor_content: "\003\000\000\000\003\000\000\000 \000\000\000\001\000\000\000"
      }
    }
  }
}
node {
  name: "conv_dw_2/depthwise/dilation_rate"
  op: "Const"
  attr {
    key: "dtype"
    value {
      type: DT_INT32
    }
  }
  attr {
    key: "value"
    value {
      tensor {
        dtype: DT_INT32
        tensor_shape {
          dim {
            size: 2
          }
        }
        tensor_content: "\001\000\000\000\001\000\000\000"
      }
    }
  }
}
node {
  name: "conv_dw_2/depthwise"
  op: "DepthwiseConv2dNative"
  input: "conv_pad_2/Pad"
  input: "conv_dw_2/depthwise/ReadVariableOp"
  attr {
    key: "T"
    value {
      type: DT_FLOAT
    }
  }
  attr {
    key: "data_format"
    value {
      s: "NHWC"
    }
  }
  attr {
    key: "dilations"
    value {
      list {
        i: 1
        i: 1
        i: 1
        i: 1
      }
    }
  }
  attr {
    key: "padding"
    value {
      s: "VALID"
    }
  }
  attr {
    key: "strides"
    value {
      list {
        i: 1
        i: 2
        i: 2
        i: 1
      }
    }
  }
}
node {
  name: "conv_dw_2_bn/Const"
  op: "Const"
  attr {
    key: "dtype"
    value {
      type: DT_FLOAT
    }
  }
  attr {
    key: "value"
    value {
      tensor {
        dtype: DT_FLOAT
        tensor_shape {
          dim {
            size: 32
          }
        }
        float_val: 1.0
      }
    }
  }
}
node {
  name: "conv_dw_2_bn/gamma"
  op: "VarHandleOp"
  attr {
    key: "_class"
    value {
      list {
        s: "loc:@conv_dw_2_bn/gamma"
      }
    }
  }
  attr {
    key: "container"
    value {
      s: ""
    }
  }
  attr {
    key: "dtype"
    value {
      type: DT_FLOAT
    }
  }
  attr {
    key: "shape"
    value {
      shape {
        dim {
          size: 32
        }
      }
    }
  }
  attr {
    key: "shared_name"
    value {
      s: "conv_dw_2_bn/gamma"
    }
  }
}
node {
  name: "conv_dw_2_bn/gamma/IsInitialized/VarIsInitializedOp"
  op: "VarIsInitializedOp"
  input: "conv_dw_2_bn/gamma"
}
node {
  name: "conv_dw_2_bn/gamma/Assign"
  op: "AssignVariableOp"
  input: "conv_dw_2_bn/gamma"
  input: "conv_dw_2_bn/Const"
  attr {
    key: "_class"
    value {
      list {
        s: "loc:@conv_dw_2_bn/gamma"
      }
    }
  }
  attr {
    key: "dtype"
    value {
      type: DT_FLOAT
    }
  }
}
node {
  name: "conv_dw_2_bn/gamma/Read/ReadVariableOp"
  op: "ReadVariableOp"
  input: "conv_dw_2_bn/gamma"
  attr {
    key: "_class"
    value {
      list {
        s: "loc:@conv_dw_2_bn/gamma"
      }
    }
  }
  attr {
    key: "dtype"
    value {
      type: DT_FLOAT
    }
  }
}
node {
  name: "conv_dw_2_bn/Const_1"
  op: "Const"
  attr {
    key: "dtype"
    value {
      type: DT_FLOAT
    }
  }
  attr {
    key: "value"
    value {
      tensor {
        dtype: DT_FLOAT
        tensor_shape {
          dim {
            size: 32
          }
        }
        float_val: 0.0
      }
    }
  }
}
node {
  name: "conv_dw_2_bn/beta"
  op: "VarHandleOp"
  attr {
    key: "_class"
    value {
      list {
        s: "loc:@conv_dw_2_bn/beta"
      }
    }
  }
  attr {
    key: "container"
    value {
      s: ""
    }
  }
  attr {
    key: "dtype"
    value {
      type: DT_FLOAT
    }
  }
  attr {
    key: "shape"
    value {
      shape {
        dim {
          size: 32
        }
      }
    }
  }
  attr {
    key: "shared_name"
    value {
      s: "conv_dw_2_bn/beta"
    }
  }
}
node {
  name: "conv_dw_2_bn/beta/IsInitialized/VarIsInitializedOp"
  op: "VarIsInitializedOp"
  input: "conv_dw_2_bn/beta"
}
node {
  name: "conv_dw_2_bn/beta/Assign"
  op: "AssignVariableOp"
  input: "conv_dw_2_bn/beta"
  input: "conv_dw_2_bn/Const_1"
  attr {
    key: "_class"
    value {
      list {
        s: "loc:@conv_dw_2_bn/beta"
      }
    }
  }
  attr {
    key: "dtype"
    value {
      type: DT_FLOAT
    }
  }
}
node {
  name: "conv_dw_2_bn/beta/Read/ReadVariableOp"
  op: "ReadVariableOp"
  input: "conv_dw_2_bn/beta"
  attr {
    key: "_class"
    value {
      list {
        s: "loc:@conv_dw_2_bn/beta"
      }
    }
  }
  attr {
    key: "dtype"
    value {
      type: DT_FLOAT
    }
  }
}
node {
  name: "conv_dw_2_bn/Const_2"
  op: "Const"
  attr {
    key: "dtype"
    value {
      type: DT_FLOAT
    }
  }
  attr {
    key: "value"
    value {
      tensor {
        dtype: DT_FLOAT
        tensor_shape {
          dim {
            size: 32
          }
        }
        float_val: 0.0
      }
    }
  }
}
node {
  name: "conv_dw_2_bn/moving_mean"
  op: "VarHandleOp"
  attr {
    key: "_class"
    value {
      list {
        s: "loc:@conv_dw_2_bn/moving_mean"
      }
    }
  }
  attr {
    key: "container"
    value {
      s: ""
    }
  }
  attr {
    key: "dtype"
    value {
      type: DT_FLOAT
    }
  }
  attr {
    key: "shape"
    value {
      shape {
        dim {
          size: 32
        }
      }
    }
  }
  attr {
    key: "shared_name"
    value {
      s: "conv_dw_2_bn/moving_mean"
    }
  }
}
node {
  name: "conv_dw_2_bn/moving_mean/IsInitialized/VarIsInitializedOp"
  op: "VarIsInitializedOp"
  input: "conv_dw_2_bn/moving_mean"
}
node {
  name: "conv_dw_2_bn/moving_mean/Assign"
  op: "AssignVariableOp"
  input: "conv_dw_2_bn/moving_mean"
  input: "conv_dw_2_bn/Const_2"
  attr {
    key: "_class"
    value {
      list {
        s: "loc:@conv_dw_2_bn/moving_mean"
      }
    }
  }
  attr {
    key: "dtype"
    value {
      type: DT_FLOAT
    }
  }
}
node {
  name: "conv_dw_2_bn/moving_mean/Read/ReadVariableOp"
  op: "ReadVariableOp"
  input: "conv_dw_2_bn/moving_mean"
  attr {
    key: "_class"
    value {
      list {
        s: "loc:@conv_dw_2_bn/moving_mean"
      }
    }
  }
  attr {
    key: "dtype"
    value {
      type: DT_FLOAT
    }
  }
}
node {
  name: "conv_dw_2_bn/Const_3"
  op: "Const"
  attr {
    key: "dtype"
    value {
      type: DT_FLOAT
    }
  }
  attr {
    key: "value"
    value {
      tensor {
        dtype: DT_FLOAT
        tensor_shape {
          dim {
            size: 32
          }
        }
        float_val: 1.0
      }
    }
  }
}
node {
  name: "conv_dw_2_bn/moving_variance"
  op: "VarHandleOp"
  attr {
    key: "_class"
    value {
      list {
        s: "loc:@conv_dw_2_bn/moving_variance"
      }
    }
  }
  attr {
    key: "container"
    value {
      s: ""
    }
  }
  attr {
    key: "dtype"
    value {
      type: DT_FLOAT
    }
  }
  attr {
    key: "shape"
    value {
      shape {
        dim {
          size: 32
        }
      }
    }
  }
  attr {
    key: "shared_name"
    value {
      s: "conv_dw_2_bn/moving_variance"
    }
  }
}
node {
  name: "conv_dw_2_bn/moving_variance/IsInitialized/VarIsInitializedOp"
  op: "VarIsInitializedOp"
  input: "conv_dw_2_bn/moving_variance"
}
node {
  name: "conv_dw_2_bn/moving_variance/Assign"
  op: "AssignVariableOp"
  input: "conv_dw_2_bn/moving_variance"
  input: "conv_dw_2_bn/Const_3"
  attr {
    key: "_class"
    value {
      list {
        s: "loc:@conv_dw_2_bn/moving_variance"
      }
    }
  }
  attr {
    key: "dtype"
    value {
      type: DT_FLOAT
    }
  }
}
node {
  name: "conv_dw_2_bn/moving_variance/Read/ReadVariableOp"
  op: "ReadVariableOp"
  input: "conv_dw_2_bn/moving_variance"
  attr {
    key: "_class"
    value {
      list {
        s: "loc:@conv_dw_2_bn/moving_variance"
      }
    }
  }
  attr {
    key: "dtype"
    value {
      type: DT_FLOAT
    }
  }
}
node {
  name: "conv_dw_2_bn/ReadVariableOp"
  op: "ReadVariableOp"
  input: "conv_dw_2_bn/gamma"
  attr {
    key: "dtype"
    value {
      type: DT_FLOAT
    }
  }
}
node {
  name: "conv_dw_2_bn/ReadVariableOp_1"
  op: "ReadVariableOp"
  input: "conv_dw_2_bn/beta"
  attr {
    key: "dtype"
    value {
      type: DT_FLOAT
    }
  }
}
node {
  name: "conv_dw_2_bn/Const_4"
  op: "Const"
  attr {
    key: "dtype"
    value {
      type: DT_FLOAT
    }
  }
  attr {
    key: "value"
    value {
      tensor {
        dtype: DT_FLOAT
        tensor_shape {
          dim {
          }
        }
      }
    }
  }
}
node {
  name: "conv_dw_2_bn/Const_5"
  op: "Const"
  attr {
    key: "dtype"
    value {
      type: DT_FLOAT
    }
  }
  attr {
    key: "value"
    value {
      tensor {
        dtype: DT_FLOAT
        tensor_shape {
          dim {
          }
        }
      }
    }
  }
}
node {
  name: "conv_dw_2_bn/FusedBatchNorm"
  op: "FusedBatchNorm"
  input: "conv_dw_2/depthwise"
  input: "conv_dw_2_bn/ReadVariableOp"
  input: "conv_dw_2_bn/ReadVariableOp_1"
  input: "conv_dw_2_bn/Const_4"
  input: "conv_dw_2_bn/Const_5"
  attr {
    key: "T"
    value {
      type: DT_FLOAT
    }
  }
  attr {
    key: "data_format"
    value {
      s: "NHWC"
    }
  }
  attr {
    key: "epsilon"
    value {
      f: 0.0010000000474974513
    }
  }
  attr {
    key: "is_training"
    value {
      b: true
    }
  }
}
node {
  name: "conv_dw_2_bn/Shape"
  op: "Shape"
  input: "conv_dw_2/depthwise"
  attr {
    key: "T"
    value {
      type: DT_FLOAT
    }
  }
  attr {
    key: "out_type"
    value {
      type: DT_INT32
    }
  }
}
node {
  name: "conv_dw_2_bn/strided_slice/stack"
  op: "Const"
  attr {
    key: "dtype"
    value {
      type: DT_INT32
    }
  }
  attr {
    key: "value"
    value {
      tensor {
        dtype: DT_INT32
        tensor_shape {
          dim {
            size: 1
          }
        }
        int_val: 0
      }
    }
  }
}
node {
  name: "conv_dw_2_bn/strided_slice/stack_1"
  op: "Const"
  attr {
    key: "dtype"
    value {
      type: DT_INT32
    }
  }
  attr {
    key: "value"
    value {
      tensor {
        dtype: DT_INT32
        tensor_shape {
          dim {
            size: 1
          }
        }
        int_val: 1
      }
    }
  }
}
node {
  name: "conv_dw_2_bn/strided_slice/stack_2"
  op: "Const"
  attr {
    key: "dtype"
    value {
      type: DT_INT32
    }
  }
  attr {
    key: "value"
    value {
      tensor {
        dtype: DT_INT32
        tensor_shape {
          dim {
            size: 1
          }
        }
        int_val: 1
      }
    }
  }
}
node {
  name: "conv_dw_2_bn/strided_slice"
  op: "StridedSlice"
  input: "conv_dw_2_bn/Shape"
  input: "conv_dw_2_bn/strided_slice/stack"
  input: "conv_dw_2_bn/strided_slice/stack_1"
  input: "conv_dw_2_bn/strided_slice/stack_2"
  attr {
    key: "Index"
    value {
      type: DT_INT32
    }
  }
  attr {
    key: "T"
    value {
      type: DT_INT32
    }
  }
  attr {
    key: "begin_mask"
    value {
      i: 0
    }
  }
  attr {
    key: "ellipsis_mask"
    value {
      i: 0
    }
  }
  attr {
    key: "end_mask"
    value {
      i: 0
    }
  }
  attr {
    key: "new_axis_mask"
    value {
      i: 0
    }
  }
  attr {
    key: "shrink_axis_mask"
    value {
      i: 1
    }
  }
}
node {
  name: "conv_dw_2_bn/Shape_1"
  op: "Shape"
  input: "conv_dw_2/depthwise"
  attr {
    key: "T"
    value {
      type: DT_FLOAT
    }
  }
  attr {
    key: "out_type"
    value {
      type: DT_INT32
    }
  }
}
node {
  name: "conv_dw_2_bn/strided_slice_1/stack"
  op: "Const"
  attr {
    key: "dtype"
    value {
      type: DT_INT32
    }
  }
  attr {
    key: "value"
    value {
      tensor {
        dtype: DT_INT32
        tensor_shape {
          dim {
            size: 1
          }
        }
        int_val: 1
      }
    }
  }
}
node {
  name: "conv_dw_2_bn/strided_slice_1/stack_1"
  op: "Const"
  attr {
    key: "dtype"
    value {
      type: DT_INT32
    }
  }
  attr {
    key: "value"
    value {
      tensor {
        dtype: DT_INT32
        tensor_shape {
          dim {
            size: 1
          }
        }
        int_val: 2
      }
    }
  }
}
node {
  name: "conv_dw_2_bn/strided_slice_1/stack_2"
  op: "Const"
  attr {
    key: "dtype"
    value {
      type: DT_INT32
    }
  }
  attr {
    key: "value"
    value {
      tensor {
        dtype: DT_INT32
        tensor_shape {
          dim {
            size: 1
          }
        }
        int_val: 1
      }
    }
  }
}
node {
  name: "conv_dw_2_bn/strided_slice_1"
  op: "StridedSlice"
  input: "conv_dw_2_bn/Shape_1"
  input: "conv_dw_2_bn/strided_slice_1/stack"
  input: "conv_dw_2_bn/strided_slice_1/stack_1"
  input: "conv_dw_2_bn/strided_slice_1/stack_2"
  attr {
    key: "Index"
    value {
      type: DT_INT32
    }
  }
  attr {
    key: "T"
    value {
      type: DT_INT32
    }
  }
  attr {
    key: "begin_mask"
    value {
      i: 0
    }
  }
  attr {
    key: "ellipsis_mask"
    value {
      i: 0
    }
  }
  attr {
    key: "end_mask"
    value {
      i: 0
    }
  }
  attr {
    key: "new_axis_mask"
    value {
      i: 0
    }
  }
  attr {
    key: "shrink_axis_mask"
    value {
      i: 1
    }
  }
}
node {
  name: "conv_dw_2_bn/Shape_2"
  op: "Shape"
  input: "conv_dw_2/depthwise"
  attr {
    key: "T"
    value {
      type: DT_FLOAT
    }
  }
  attr {
    key: "out_type"
    value {
      type: DT_INT32
    }
  }
}
node {
  name: "conv_dw_2_bn/strided_slice_2/stack"
  op: "Const"
  attr {
    key: "dtype"
    value {
      type: DT_INT32
    }
  }
  attr {
    key: "value"
    value {
      tensor {
        dtype: DT_INT32
        tensor_shape {
          dim {
            size: 1
          }
        }
        int_val: 2
      }
    }
  }
}
node {
  name: "conv_dw_2_bn/strided_slice_2/stack_1"
  op: "Const"
  attr {
    key: "dtype"
    value {
      type: DT_INT32
    }
  }
  attr {
    key: "value"
    value {
      tensor {
        dtype: DT_INT32
        tensor_shape {
          dim {
            size: 1
          }
        }
        int_val: 3
      }
    }
  }
}
node {
  name: "conv_dw_2_bn/strided_slice_2/stack_2"
  op: "Const"
  attr {
    key: "dtype"
    value {
      type: DT_INT32
    }
  }
  attr {
    key: "value"
    value {
      tensor {
        dtype: DT_INT32
        tensor_shape {
          dim {
            size: 1
          }
        }
        int_val: 1
      }
    }
  }
}
node {
  name: "conv_dw_2_bn/strided_slice_2"
  op: "StridedSlice"
  input: "conv_dw_2_bn/Shape_2"
  input: "conv_dw_2_bn/strided_slice_2/stack"
  input: "conv_dw_2_bn/strided_slice_2/stack_1"
  input: "conv_dw_2_bn/strided_slice_2/stack_2"
  attr {
    key: "Index"
    value {
      type: DT_INT32
    }
  }
  attr {
    key: "T"
    value {
      type: DT_INT32
    }
  }
  attr {
    key: "begin_mask"
    value {
      i: 0
    }
  }
  attr {
    key: "ellipsis_mask"
    value {
      i: 0
    }
  }
  attr {
    key: "end_mask"
    value {
      i: 0
    }
  }
  attr {
    key: "new_axis_mask"
    value {
      i: 0
    }
  }
  attr {
    key: "shrink_axis_mask"
    value {
      i: 1
    }
  }
}
node {
  name: "conv_dw_2_bn/Rank/packed"
  op: "Pack"
  input: "conv_dw_2_bn/strided_slice"
  input: "conv_dw_2_bn/strided_slice_1"
  input: "conv_dw_2_bn/strided_slice_2"
  attr {
    key: "N"
    value {
      i: 3
    }
  }
  attr {
    key: "T"
    value {
      type: DT_INT32
    }
  }
  attr {
    key: "axis"
    value {
      i: 0
    }
  }
}
node {
  name: "conv_dw_2_bn/Rank"
  op: "Const"
  attr {
    key: "dtype"
    value {
      type: DT_INT32
    }
  }
  attr {
    key: "value"
    value {
      tensor {
        dtype: DT_INT32
        tensor_shape {
        }
        int_val: 1
      }
    }
  }
}
node {
  name: "conv_dw_2_bn/range/start"
  op: "Const"
  attr {
    key: "dtype"
    value {
      type: DT_INT32
    }
  }
  attr {
    key: "value"
    value {
      tensor {
        dtype: DT_INT32
        tensor_shape {
        }
        int_val: 0
      }
    }
  }
}
node {
  name: "conv_dw_2_bn/range/delta"
  op: "Const"
  attr {
    key: "dtype"
    value {
      type: DT_INT32
    }
  }
  attr {
    key: "value"
    value {
      tensor {
        dtype: DT_INT32
        tensor_shape {
        }
        int_val: 1
      }
    }
  }
}
node {
  name: "conv_dw_2_bn/range"
  op: "Range"
  input: "conv_dw_2_bn/range/start"
  input: "conv_dw_2_bn/Rank"
  input: "conv_dw_2_bn/range/delta"
  attr {
    key: "Tidx"
    value {
      type: DT_INT32
    }
  }
}
node {
  name: "conv_dw_2_bn/Prod/input"
  op: "Pack"
  input: "conv_dw_2_bn/strided_slice"
  input: "conv_dw_2_bn/strided_slice_1"
  input: "conv_dw_2_bn/strided_slice_2"
  attr {
    key: "N"
    value {
      i: 3
    }
  }
  attr {
    key: "T"
    value {
      type: DT_INT32
    }
  }
  attr {
    key: "axis"
    value {
      i: 0
    }
  }
}
node {
  name: "conv_dw_2_bn/Prod"
  op: "Prod"
  input: "conv_dw_2_bn/Prod/input"
  input: "conv_dw_2_bn/range"
  attr {
    key: "T"
    value {
      type: DT_INT32
    }
  }
  attr {
    key: "Tidx"
    value {
      type: DT_INT32
    }
  }
  attr {
    key: "keep_dims"
    value {
      b: false
    }
  }
}
node {
  name: "conv_dw_2_bn/Cast"
  op: "Cast"
  input: "conv_dw_2_bn/Prod"
  attr {
    key: "DstT"
    value {
      type: DT_FLOAT
    }
  }
  attr {
    key: "SrcT"
    value {
      type: DT_INT32
    }
  }
  attr {
    key: "Truncate"
    value {
      b: false
    }
  }
}
node {
  name: "conv_dw_2_bn/sub/y"
  op: "Const"
  attr {
    key: "dtype"
    value {
      type: DT_FLOAT
    }
  }
  attr {
    key: "value"
    value {
      tensor {
        dtype: DT_FLOAT
        tensor_shape {
        }
        float_val: 1.0010000467300415
      }
    }
  }
}
node {
  name: "conv_dw_2_bn/sub"
  op: "Sub"
  input: "conv_dw_2_bn/Cast"
  input: "conv_dw_2_bn/sub/y"
  attr {
    key: "T"
    value {
      type: DT_FLOAT
    }
  }
}
node {
  name: "conv_dw_2_bn/truediv"
  op: "RealDiv"
  input: "conv_dw_2_bn/Cast"
  input: "conv_dw_2_bn/sub"
  attr {
    key: "T"
    value {
      type: DT_FLOAT
    }
  }
}
node {
  name: "conv_dw_2_bn/mul"
  op: "Mul"
  input: "conv_dw_2_bn/FusedBatchNorm:2"
  input: "conv_dw_2_bn/truediv"
  attr {
    key: "T"
    value {
      type: DT_FLOAT
    }
  }
}
node {
  name: "conv_dw_2_bn/Const_6"
  op: "Const"
  attr {
    key: "_class"
    value {
      list {
        s: "loc:@conv_dw_2_bn/moving_mean"
      }
    }
  }
  attr {
    key: "dtype"
    value {
      type: DT_FLOAT
    }
  }
  attr {
    key: "value"
    value {
      tensor {
        dtype: DT_FLOAT
        tensor_shape {
        }
        float_val: 0.009999999776482582
      }
    }
  }
}
node {
  name: "conv_dw_2_bn/ReadVariableOp_2"
  op: "ReadVariableOp"
  input: "conv_dw_2_bn/moving_mean"
  attr {
    key: "dtype"
    value {
      type: DT_FLOAT
    }
  }
}
node {
  name: "conv_dw_2_bn/sub_1"
  op: "Sub"
  input: "conv_dw_2_bn/ReadVariableOp_2"
  input: "conv_dw_2_bn/FusedBatchNorm:1"
  attr {
    key: "T"
    value {
      type: DT_FLOAT
    }
  }
  attr {
    key: "_class"
    value {
      list {
        s: "loc:@conv_dw_2_bn/moving_mean"
      }
    }
  }
}
node {
  name: "conv_dw_2_bn/mul_1"
  op: "Mul"
  input: "conv_dw_2_bn/sub_1"
  input: "conv_dw_2_bn/Const_6"
  attr {
    key: "T"
    value {
      type: DT_FLOAT
    }
  }
  attr {
    key: "_class"
    value {
      list {
        s: "loc:@conv_dw_2_bn/moving_mean"
      }
    }
  }
}
node {
  name: "conv_dw_2_bn/AssignSubVariableOp"
  op: "AssignSubVariableOp"
  input: "conv_dw_2_bn/moving_mean"
  input: "conv_dw_2_bn/mul_1"
  attr {
    key: "_class"
    value {
      list {
        s: "loc:@conv_dw_2_bn/moving_mean"
      }
    }
  }
  attr {
    key: "dtype"
    value {
      type: DT_FLOAT
    }
  }
}
node {
  name: "conv_dw_2_bn/ReadVariableOp_3"
  op: "ReadVariableOp"
  input: "conv_dw_2_bn/moving_mean"
  input: "^conv_dw_2_bn/AssignSubVariableOp"
  attr {
    key: "_class"
    value {
      list {
        s: "loc:@conv_dw_2_bn/moving_mean"
      }
    }
  }
  attr {
    key: "dtype"
    value {
      type: DT_FLOAT
    }
  }
}
node {
  name: "conv_dw_2_bn/Const_7"
  op: "Const"
  attr {
    key: "_class"
    value {
      list {
        s: "loc:@conv_dw_2_bn/moving_variance"
      }
    }
  }
  attr {
    key: "dtype"
    value {
      type: DT_FLOAT
    }
  }
  attr {
    key: "value"
    value {
      tensor {
        dtype: DT_FLOAT
        tensor_shape {
        }
        float_val: 0.009999999776482582
      }
    }
  }
}
node {
  name: "conv_dw_2_bn/ReadVariableOp_4"
  op: "ReadVariableOp"
  input: "conv_dw_2_bn/moving_variance"
  attr {
    key: "dtype"
    value {
      type: DT_FLOAT
    }
  }
}
node {
  name: "conv_dw_2_bn/sub_2"
  op: "Sub"
  input: "conv_dw_2_bn/ReadVariableOp_4"
  input: "conv_dw_2_bn/mul"
  attr {
    key: "T"
    value {
      type: DT_FLOAT
    }
  }
  attr {
    key: "_class"
    value {
      list {
        s: "loc:@conv_dw_2_bn/moving_variance"
      }
    }
  }
}
node {
  name: "conv_dw_2_bn/mul_2"
  op: "Mul"
  input: "conv_dw_2_bn/sub_2"
  input: "conv_dw_2_bn/Const_7"
  attr {
    key: "T"
    value {
      type: DT_FLOAT
    }
  }
  attr {
    key: "_class"
    value {
      list {
        s: "loc:@conv_dw_2_bn/moving_variance"
      }
    }
  }
}
node {
  name: "conv_dw_2_bn/AssignSubVariableOp_1"
  op: "AssignSubVariableOp"
  input: "conv_dw_2_bn/moving_variance"
  input: "conv_dw_2_bn/mul_2"
  attr {
    key: "_class"
    value {
      list {
        s: "loc:@conv_dw_2_bn/moving_variance"
      }
    }
  }
  attr {
    key: "dtype"
    value {
      type: DT_FLOAT
    }
  }
}
node {
  name: "conv_dw_2_bn/ReadVariableOp_5"
  op: "ReadVariableOp"
  input: "conv_dw_2_bn/moving_variance"
  input: "^conv_dw_2_bn/AssignSubVariableOp_1"
  attr {
    key: "_class"
    value {
      list {
        s: "loc:@conv_dw_2_bn/moving_variance"
      }
    }
  }
  attr {
    key: "dtype"
    value {
      type: DT_FLOAT
    }
  }
}
node {
  name: "conv_dw_2_bn/ReadVariableOp_6"
  op: "ReadVariableOp"
  input: "conv_dw_2_bn/gamma"
  attr {
    key: "dtype"
    value {
      type: DT_FLOAT
    }
  }
}
node {
  name: "conv_dw_2_bn/ReadVariableOp_7"
  op: "ReadVariableOp"
  input: "conv_dw_2_bn/beta"
  attr {
    key: "dtype"
    value {
      type: DT_FLOAT
    }
  }
}
node {
  name: "conv_dw_2_bn/FusedBatchNorm_1/ReadVariableOp"
  op: "ReadVariableOp"
  input: "conv_dw_2_bn/moving_mean"
  attr {
    key: "dtype"
    value {
      type: DT_FLOAT
    }
  }
}
node {
  name: "conv_dw_2_bn/FusedBatchNorm_1/ReadVariableOp_1"
  op: "ReadVariableOp"
  input: "conv_dw_2_bn/moving_variance"
  attr {
    key: "dtype"
    value {
      type: DT_FLOAT
    }
  }
}
node {
  name: "conv_dw_2_bn/FusedBatchNorm_1"
  op: "FusedBatchNorm"
  input: "conv_dw_2/depthwise"
  input: "conv_dw_2_bn/ReadVariableOp_6"
  input: "conv_dw_2_bn/ReadVariableOp_7"
  input: "conv_dw_2_bn/FusedBatchNorm_1/ReadVariableOp"
  input: "conv_dw_2_bn/FusedBatchNorm_1/ReadVariableOp_1"
  attr {
    key: "T"
    value {
      type: DT_FLOAT
    }
  }
  attr {
    key: "data_format"
    value {
      s: "NHWC"
    }
  }
  attr {
    key: "epsilon"
    value {
      f: 0.0010000000474974513
    }
  }
  attr {
    key: "is_training"
    value {
      b: false
    }
  }
}
node {
  name: "conv_dw_2_relu/Relu6"
  op: "Relu6"
  input: "conv_dw_2_bn/FusedBatchNorm_1"
  attr {
    key: "T"
    value {
      type: DT_FLOAT
    }
  }
}
node {
  name: "conv_pw_2/random_uniform/shape"
  op: "Const"
  attr {
    key: "dtype"
    value {
      type: DT_INT32
    }
  }
  attr {
    key: "value"
    value {
      tensor {
        dtype: DT_INT32
        tensor_shape {
          dim {
            size: 4
          }
        }
        tensor_content: "\001\000\000\000\001\000\000\000 \000\000\000@\000\000\000"
      }
    }
  }
}
node {
  name: "conv_pw_2/random_uniform/min"
  op: "Const"
  attr {
    key: "dtype"
    value {
      type: DT_FLOAT
    }
  }
  attr {
    key: "value"
    value {
      tensor {
        dtype: DT_FLOAT
        tensor_shape {
        }
        float_val: -0.25
      }
    }
  }
}
node {
  name: "conv_pw_2/random_uniform/max"
  op: "Const"
  attr {
    key: "dtype"
    value {
      type: DT_FLOAT
    }
  }
  attr {
    key: "value"
    value {
      tensor {
        dtype: DT_FLOAT
        tensor_shape {
        }
        float_val: 0.25
      }
    }
  }
}
node {
  name: "conv_pw_2/random_uniform/RandomUniform"
  op: "RandomUniform"
  input: "conv_pw_2/random_uniform/shape"
  attr {
    key: "T"
    value {
      type: DT_INT32
    }
  }
  attr {
    key: "dtype"
    value {
      type: DT_FLOAT
    }
  }
  attr {
    key: "seed"
    value {
      i: 87654321
    }
  }
  attr {
    key: "seed2"
    value {
      i: 8264755
    }
  }
}
node {
  name: "conv_pw_2/random_uniform/sub"
  op: "Sub"
  input: "conv_pw_2/random_uniform/max"
  input: "conv_pw_2/random_uniform/min"
  attr {
    key: "T"
    value {
      type: DT_FLOAT
    }
  }
}
node {
  name: "conv_pw_2/random_uniform/mul"
  op: "Mul"
  input: "conv_pw_2/random_uniform/RandomUniform"
  input: "conv_pw_2/random_uniform/sub"
  attr {
    key: "T"
    value {
      type: DT_FLOAT
    }
  }
}
node {
  name: "conv_pw_2/random_uniform"
  op: "Add"
  input: "conv_pw_2/random_uniform/mul"
  input: "conv_pw_2/random_uniform/min"
  attr {
    key: "T"
    value {
      type: DT_FLOAT
    }
  }
}
node {
  name: "conv_pw_2/kernel"
  op: "VarHandleOp"
  attr {
    key: "_class"
    value {
      list {
        s: "loc:@conv_pw_2/kernel"
      }
    }
  }
  attr {
    key: "container"
    value {
      s: ""
    }
  }
  attr {
    key: "dtype"
    value {
      type: DT_FLOAT
    }
  }
  attr {
    key: "shape"
    value {
      shape {
        dim {
          size: 1
        }
        dim {
          size: 1
        }
        dim {
          size: 32
        }
        dim {
          size: 64
        }
      }
    }
  }
  attr {
    key: "shared_name"
    value {
      s: "conv_pw_2/kernel"
    }
  }
}
node {
  name: "conv_pw_2/kernel/IsInitialized/VarIsInitializedOp"
  op: "VarIsInitializedOp"
  input: "conv_pw_2/kernel"
}
node {
  name: "conv_pw_2/kernel/Assign"
  op: "AssignVariableOp"
  input: "conv_pw_2/kernel"
  input: "conv_pw_2/random_uniform"
  attr {
    key: "_class"
    value {
      list {
        s: "loc:@conv_pw_2/kernel"
      }
    }
  }
  attr {
    key: "dtype"
    value {
      type: DT_FLOAT
    }
  }
}
node {
  name: "conv_pw_2/kernel/Read/ReadVariableOp"
  op: "ReadVariableOp"
  input: "conv_pw_2/kernel"
  attr {
    key: "_class"
    value {
      list {
        s: "loc:@conv_pw_2/kernel"
      }
    }
  }
  attr {
    key: "dtype"
    value {
      type: DT_FLOAT
    }
  }
}
node {
  name: "conv_pw_2/convolution/ReadVariableOp"
  op: "ReadVariableOp"
  input: "conv_pw_2/kernel"
  attr {
    key: "dtype"
    value {
      type: DT_FLOAT
    }
  }
}
node {
  name: "conv_pw_2/convolution"
  op: "Conv2D"
  input: "conv_dw_2_relu/Relu6"
  input: "conv_pw_2/convolution/ReadVariableOp"
  attr {
    key: "T"
    value {
      type: DT_FLOAT
    }
  }
  attr {
    key: "data_format"
    value {
      s: "NHWC"
    }
  }
  attr {
    key: "dilations"
    value {
      list {
        i: 1
        i: 1
        i: 1
        i: 1
      }
    }
  }
  attr {
    key: "explicit_paddings"
    value {
      list {
      }
    }
  }
  attr {
    key: "padding"
    value {
      s: "SAME"
    }
  }
  attr {
    key: "strides"
    value {
      list {
        i: 1
        i: 1
        i: 1
        i: 1
      }
    }
  }
  attr {
    key: "use_cudnn_on_gpu"
    value {
      b: true
    }
  }
}
node {
  name: "conv_pw_2_bn/Const"
  op: "Const"
  attr {
    key: "dtype"
    value {
      type: DT_FLOAT
    }
  }
  attr {
    key: "value"
    value {
      tensor {
        dtype: DT_FLOAT
        tensor_shape {
          dim {
            size: 64
          }
        }
        float_val: 1.0
      }
    }
  }
}
node {
  name: "conv_pw_2_bn/gamma"
  op: "VarHandleOp"
  attr {
    key: "_class"
    value {
      list {
        s: "loc:@conv_pw_2_bn/gamma"
      }
    }
  }
  attr {
    key: "container"
    value {
      s: ""
    }
  }
  attr {
    key: "dtype"
    value {
      type: DT_FLOAT
    }
  }
  attr {
    key: "shape"
    value {
      shape {
        dim {
          size: 64
        }
      }
    }
  }
  attr {
    key: "shared_name"
    value {
      s: "conv_pw_2_bn/gamma"
    }
  }
}
node {
  name: "conv_pw_2_bn/gamma/IsInitialized/VarIsInitializedOp"
  op: "VarIsInitializedOp"
  input: "conv_pw_2_bn/gamma"
}
node {
  name: "conv_pw_2_bn/gamma/Assign"
  op: "AssignVariableOp"
  input: "conv_pw_2_bn/gamma"
  input: "conv_pw_2_bn/Const"
  attr {
    key: "_class"
    value {
      list {
        s: "loc:@conv_pw_2_bn/gamma"
      }
    }
  }
  attr {
    key: "dtype"
    value {
      type: DT_FLOAT
    }
  }
}
node {
  name: "conv_pw_2_bn/gamma/Read/ReadVariableOp"
  op: "ReadVariableOp"
  input: "conv_pw_2_bn/gamma"
  attr {
    key: "_class"
    value {
      list {
        s: "loc:@conv_pw_2_bn/gamma"
      }
    }
  }
  attr {
    key: "dtype"
    value {
      type: DT_FLOAT
    }
  }
}
node {
  name: "conv_pw_2_bn/Const_1"
  op: "Const"
  attr {
    key: "dtype"
    value {
      type: DT_FLOAT
    }
  }
  attr {
    key: "value"
    value {
      tensor {
        dtype: DT_FLOAT
        tensor_shape {
          dim {
            size: 64
          }
        }
        float_val: 0.0
      }
    }
  }
}
node {
  name: "conv_pw_2_bn/beta"
  op: "VarHandleOp"
  attr {
    key: "_class"
    value {
      list {
        s: "loc:@conv_pw_2_bn/beta"
      }
    }
  }
  attr {
    key: "container"
    value {
      s: ""
    }
  }
  attr {
    key: "dtype"
    value {
      type: DT_FLOAT
    }
  }
  attr {
    key: "shape"
    value {
      shape {
        dim {
          size: 64
        }
      }
    }
  }
  attr {
    key: "shared_name"
    value {
      s: "conv_pw_2_bn/beta"
    }
  }
}
node {
  name: "conv_pw_2_bn/beta/IsInitialized/VarIsInitializedOp"
  op: "VarIsInitializedOp"
  input: "conv_pw_2_bn/beta"
}
node {
  name: "conv_pw_2_bn/beta/Assign"
  op: "AssignVariableOp"
  input: "conv_pw_2_bn/beta"
  input: "conv_pw_2_bn/Const_1"
  attr {
    key: "_class"
    value {
      list {
        s: "loc:@conv_pw_2_bn/beta"
      }
    }
  }
  attr {
    key: "dtype"
    value {
      type: DT_FLOAT
    }
  }
}
node {
  name: "conv_pw_2_bn/beta/Read/ReadVariableOp"
  op: "ReadVariableOp"
  input: "conv_pw_2_bn/beta"
  attr {
    key: "_class"
    value {
      list {
        s: "loc:@conv_pw_2_bn/beta"
      }
    }
  }
  attr {
    key: "dtype"
    value {
      type: DT_FLOAT
    }
  }
}
node {
  name: "conv_pw_2_bn/Const_2"
  op: "Const"
  attr {
    key: "dtype"
    value {
      type: DT_FLOAT
    }
  }
  attr {
    key: "value"
    value {
      tensor {
        dtype: DT_FLOAT
        tensor_shape {
          dim {
            size: 64
          }
        }
        float_val: 0.0
      }
    }
  }
}
node {
  name: "conv_pw_2_bn/moving_mean"
  op: "VarHandleOp"
  attr {
    key: "_class"
    value {
      list {
        s: "loc:@conv_pw_2_bn/moving_mean"
      }
    }
  }
  attr {
    key: "container"
    value {
      s: ""
    }
  }
  attr {
    key: "dtype"
    value {
      type: DT_FLOAT
    }
  }
  attr {
    key: "shape"
    value {
      shape {
        dim {
          size: 64
        }
      }
    }
  }
  attr {
    key: "shared_name"
    value {
      s: "conv_pw_2_bn/moving_mean"
    }
  }
}
node {
  name: "conv_pw_2_bn/moving_mean/IsInitialized/VarIsInitializedOp"
  op: "VarIsInitializedOp"
  input: "conv_pw_2_bn/moving_mean"
}
node {
  name: "conv_pw_2_bn/moving_mean/Assign"
  op: "AssignVariableOp"
  input: "conv_pw_2_bn/moving_mean"
  input: "conv_pw_2_bn/Const_2"
  attr {
    key: "_class"
    value {
      list {
        s: "loc:@conv_pw_2_bn/moving_mean"
      }
    }
  }
  attr {
    key: "dtype"
    value {
      type: DT_FLOAT
    }
  }
}
node {
  name: "conv_pw_2_bn/moving_mean/Read/ReadVariableOp"
  op: "ReadVariableOp"
  input: "conv_pw_2_bn/moving_mean"
  attr {
    key: "_class"
    value {
      list {
        s: "loc:@conv_pw_2_bn/moving_mean"
      }
    }
  }
  attr {
    key: "dtype"
    value {
      type: DT_FLOAT
    }
  }
}
node {
  name: "conv_pw_2_bn/Const_3"
  op: "Const"
  attr {
    key: "dtype"
    value {
      type: DT_FLOAT
    }
  }
  attr {
    key: "value"
    value {
      tensor {
        dtype: DT_FLOAT
        tensor_shape {
          dim {
            size: 64
          }
        }
        float_val: 1.0
      }
    }
  }
}
node {
  name: "conv_pw_2_bn/moving_variance"
  op: "VarHandleOp"
  attr {
    key: "_class"
    value {
      list {
        s: "loc:@conv_pw_2_bn/moving_variance"
      }
    }
  }
  attr {
    key: "container"
    value {
      s: ""
    }
  }
  attr {
    key: "dtype"
    value {
      type: DT_FLOAT
    }
  }
  attr {
    key: "shape"
    value {
      shape {
        dim {
          size: 64
        }
      }
    }
  }
  attr {
    key: "shared_name"
    value {
      s: "conv_pw_2_bn/moving_variance"
    }
  }
}
node {
  name: "conv_pw_2_bn/moving_variance/IsInitialized/VarIsInitializedOp"
  op: "VarIsInitializedOp"
  input: "conv_pw_2_bn/moving_variance"
}
node {
  name: "conv_pw_2_bn/moving_variance/Assign"
  op: "AssignVariableOp"
  input: "conv_pw_2_bn/moving_variance"
  input: "conv_pw_2_bn/Const_3"
  attr {
    key: "_class"
    value {
      list {
        s: "loc:@conv_pw_2_bn/moving_variance"
      }
    }
  }
  attr {
    key: "dtype"
    value {
      type: DT_FLOAT
    }
  }
}
node {
  name: "conv_pw_2_bn/moving_variance/Read/ReadVariableOp"
  op: "ReadVariableOp"
  input: "conv_pw_2_bn/moving_variance"
  attr {
    key: "_class"
    value {
      list {
        s: "loc:@conv_pw_2_bn/moving_variance"
      }
    }
  }
  attr {
    key: "dtype"
    value {
      type: DT_FLOAT
    }
  }
}
node {
  name: "conv_pw_2_bn/ReadVariableOp"
  op: "ReadVariableOp"
  input: "conv_pw_2_bn/gamma"
  attr {
    key: "dtype"
    value {
      type: DT_FLOAT
    }
  }
}
node {
  name: "conv_pw_2_bn/ReadVariableOp_1"
  op: "ReadVariableOp"
  input: "conv_pw_2_bn/beta"
  attr {
    key: "dtype"
    value {
      type: DT_FLOAT
    }
  }
}
node {
  name: "conv_pw_2_bn/Const_4"
  op: "Const"
  attr {
    key: "dtype"
    value {
      type: DT_FLOAT
    }
  }
  attr {
    key: "value"
    value {
      tensor {
        dtype: DT_FLOAT
        tensor_shape {
          dim {
          }
        }
      }
    }
  }
}
node {
  name: "conv_pw_2_bn/Const_5"
  op: "Const"
  attr {
    key: "dtype"
    value {
      type: DT_FLOAT
    }
  }
  attr {
    key: "value"
    value {
      tensor {
        dtype: DT_FLOAT
        tensor_shape {
          dim {
          }
        }
      }
    }
  }
}
node {
  name: "conv_pw_2_bn/FusedBatchNorm"
  op: "FusedBatchNorm"
  input: "conv_pw_2/convolution"
  input: "conv_pw_2_bn/ReadVariableOp"
  input: "conv_pw_2_bn/ReadVariableOp_1"
  input: "conv_pw_2_bn/Const_4"
  input: "conv_pw_2_bn/Const_5"
  attr {
    key: "T"
    value {
      type: DT_FLOAT
    }
  }
  attr {
    key: "data_format"
    value {
      s: "NHWC"
    }
  }
  attr {
    key: "epsilon"
    value {
      f: 0.0010000000474974513
    }
  }
  attr {
    key: "is_training"
    value {
      b: true
    }
  }
}
node {
  name: "conv_pw_2_bn/Shape"
  op: "Shape"
  input: "conv_pw_2/convolution"
  attr {
    key: "T"
    value {
      type: DT_FLOAT
    }
  }
  attr {
    key: "out_type"
    value {
      type: DT_INT32
    }
  }
}
node {
  name: "conv_pw_2_bn/strided_slice/stack"
  op: "Const"
  attr {
    key: "dtype"
    value {
      type: DT_INT32
    }
  }
  attr {
    key: "value"
    value {
      tensor {
        dtype: DT_INT32
        tensor_shape {
          dim {
            size: 1
          }
        }
        int_val: 0
      }
    }
  }
}
node {
  name: "conv_pw_2_bn/strided_slice/stack_1"
  op: "Const"
  attr {
    key: "dtype"
    value {
      type: DT_INT32
    }
  }
  attr {
    key: "value"
    value {
      tensor {
        dtype: DT_INT32
        tensor_shape {
          dim {
            size: 1
          }
        }
        int_val: 1
      }
    }
  }
}
node {
  name: "conv_pw_2_bn/strided_slice/stack_2"
  op: "Const"
  attr {
    key: "dtype"
    value {
      type: DT_INT32
    }
  }
  attr {
    key: "value"
    value {
      tensor {
        dtype: DT_INT32
        tensor_shape {
          dim {
            size: 1
          }
        }
        int_val: 1
      }
    }
  }
}
node {
  name: "conv_pw_2_bn/strided_slice"
  op: "StridedSlice"
  input: "conv_pw_2_bn/Shape"
  input: "conv_pw_2_bn/strided_slice/stack"
  input: "conv_pw_2_bn/strided_slice/stack_1"
  input: "conv_pw_2_bn/strided_slice/stack_2"
  attr {
    key: "Index"
    value {
      type: DT_INT32
    }
  }
  attr {
    key: "T"
    value {
      type: DT_INT32
    }
  }
  attr {
    key: "begin_mask"
    value {
      i: 0
    }
  }
  attr {
    key: "ellipsis_mask"
    value {
      i: 0
    }
  }
  attr {
    key: "end_mask"
    value {
      i: 0
    }
  }
  attr {
    key: "new_axis_mask"
    value {
      i: 0
    }
  }
  attr {
    key: "shrink_axis_mask"
    value {
      i: 1
    }
  }
}
node {
  name: "conv_pw_2_bn/Shape_1"
  op: "Shape"
  input: "conv_pw_2/convolution"
  attr {
    key: "T"
    value {
      type: DT_FLOAT
    }
  }
  attr {
    key: "out_type"
    value {
      type: DT_INT32
    }
  }
}
node {
  name: "conv_pw_2_bn/strided_slice_1/stack"
  op: "Const"
  attr {
    key: "dtype"
    value {
      type: DT_INT32
    }
  }
  attr {
    key: "value"
    value {
      tensor {
        dtype: DT_INT32
        tensor_shape {
          dim {
            size: 1
          }
        }
        int_val: 1
      }
    }
  }
}
node {
  name: "conv_pw_2_bn/strided_slice_1/stack_1"
  op: "Const"
  attr {
    key: "dtype"
    value {
      type: DT_INT32
    }
  }
  attr {
    key: "value"
    value {
      tensor {
        dtype: DT_INT32
        tensor_shape {
          dim {
            size: 1
          }
        }
        int_val: 2
      }
    }
  }
}
node {
  name: "conv_pw_2_bn/strided_slice_1/stack_2"
  op: "Const"
  attr {
    key: "dtype"
    value {
      type: DT_INT32
    }
  }
  attr {
    key: "value"
    value {
      tensor {
        dtype: DT_INT32
        tensor_shape {
          dim {
            size: 1
          }
        }
        int_val: 1
      }
    }
  }
}
node {
  name: "conv_pw_2_bn/strided_slice_1"
  op: "StridedSlice"
  input: "conv_pw_2_bn/Shape_1"
  input: "conv_pw_2_bn/strided_slice_1/stack"
  input: "conv_pw_2_bn/strided_slice_1/stack_1"
  input: "conv_pw_2_bn/strided_slice_1/stack_2"
  attr {
    key: "Index"
    value {
      type: DT_INT32
    }
  }
  attr {
    key: "T"
    value {
      type: DT_INT32
    }
  }
  attr {
    key: "begin_mask"
    value {
      i: 0
    }
  }
  attr {
    key: "ellipsis_mask"
    value {
      i: 0
    }
  }
  attr {
    key: "end_mask"
    value {
      i: 0
    }
  }
  attr {
    key: "new_axis_mask"
    value {
      i: 0
    }
  }
  attr {
    key: "shrink_axis_mask"
    value {
      i: 1
    }
  }
}
node {
  name: "conv_pw_2_bn/Shape_2"
  op: "Shape"
  input: "conv_pw_2/convolution"
  attr {
    key: "T"
    value {
      type: DT_FLOAT
    }
  }
  attr {
    key: "out_type"
    value {
      type: DT_INT32
    }
  }
}
node {
  name: "conv_pw_2_bn/strided_slice_2/stack"
  op: "Const"
  attr {
    key: "dtype"
    value {
      type: DT_INT32
    }
  }
  attr {
    key: "value"
    value {
      tensor {
        dtype: DT_INT32
        tensor_shape {
          dim {
            size: 1
          }
        }
        int_val: 2
      }
    }
  }
}
node {
  name: "conv_pw_2_bn/strided_slice_2/stack_1"
  op: "Const"
  attr {
    key: "dtype"
    value {
      type: DT_INT32
    }
  }
  attr {
    key: "value"
    value {
      tensor {
        dtype: DT_INT32
        tensor_shape {
          dim {
            size: 1
          }
        }
        int_val: 3
      }
    }
  }
}
node {
  name: "conv_pw_2_bn/strided_slice_2/stack_2"
  op: "Const"
  attr {
    key: "dtype"
    value {
      type: DT_INT32
    }
  }
  attr {
    key: "value"
    value {
      tensor {
        dtype: DT_INT32
        tensor_shape {
          dim {
            size: 1
          }
        }
        int_val: 1
      }
    }
  }
}
node {
  name: "conv_pw_2_bn/strided_slice_2"
  op: "StridedSlice"
  input: "conv_pw_2_bn/Shape_2"
  input: "conv_pw_2_bn/strided_slice_2/stack"
  input: "conv_pw_2_bn/strided_slice_2/stack_1"
  input: "conv_pw_2_bn/strided_slice_2/stack_2"
  attr {
    key: "Index"
    value {
      type: DT_INT32
    }
  }
  attr {
    key: "T"
    value {
      type: DT_INT32
    }
  }
  attr {
    key: "begin_mask"
    value {
      i: 0
    }
  }
  attr {
    key: "ellipsis_mask"
    value {
      i: 0
    }
  }
  attr {
    key: "end_mask"
    value {
      i: 0
    }
  }
  attr {
    key: "new_axis_mask"
    value {
      i: 0
    }
  }
  attr {
    key: "shrink_axis_mask"
    value {
      i: 1
    }
  }
}
node {
  name: "conv_pw_2_bn/Rank/packed"
  op: "Pack"
  input: "conv_pw_2_bn/strided_slice"
  input: "conv_pw_2_bn/strided_slice_1"
  input: "conv_pw_2_bn/strided_slice_2"
  attr {
    key: "N"
    value {
      i: 3
    }
  }
  attr {
    key: "T"
    value {
      type: DT_INT32
    }
  }
  attr {
    key: "axis"
    value {
      i: 0
    }
  }
}
node {
  name: "conv_pw_2_bn/Rank"
  op: "Const"
  attr {
    key: "dtype"
    value {
      type: DT_INT32
    }
  }
  attr {
    key: "value"
    value {
      tensor {
        dtype: DT_INT32
        tensor_shape {
        }
        int_val: 1
      }
    }
  }
}
node {
  name: "conv_pw_2_bn/range/start"
  op: "Const"
  attr {
    key: "dtype"
    value {
      type: DT_INT32
    }
  }
  attr {
    key: "value"
    value {
      tensor {
        dtype: DT_INT32
        tensor_shape {
        }
        int_val: 0
      }
    }
  }
}
node {
  name: "conv_pw_2_bn/range/delta"
  op: "Const"
  attr {
    key: "dtype"
    value {
      type: DT_INT32
    }
  }
  attr {
    key: "value"
    value {
      tensor {
        dtype: DT_INT32
        tensor_shape {
        }
        int_val: 1
      }
    }
  }
}
node {
  name: "conv_pw_2_bn/range"
  op: "Range"
  input: "conv_pw_2_bn/range/start"
  input: "conv_pw_2_bn/Rank"
  input: "conv_pw_2_bn/range/delta"
  attr {
    key: "Tidx"
    value {
      type: DT_INT32
    }
  }
}
node {
  name: "conv_pw_2_bn/Prod/input"
  op: "Pack"
  input: "conv_pw_2_bn/strided_slice"
  input: "conv_pw_2_bn/strided_slice_1"
  input: "conv_pw_2_bn/strided_slice_2"
  attr {
    key: "N"
    value {
      i: 3
    }
  }
  attr {
    key: "T"
    value {
      type: DT_INT32
    }
  }
  attr {
    key: "axis"
    value {
      i: 0
    }
  }
}
node {
  name: "conv_pw_2_bn/Prod"
  op: "Prod"
  input: "conv_pw_2_bn/Prod/input"
  input: "conv_pw_2_bn/range"
  attr {
    key: "T"
    value {
      type: DT_INT32
    }
  }
  attr {
    key: "Tidx"
    value {
      type: DT_INT32
    }
  }
  attr {
    key: "keep_dims"
    value {
      b: false
    }
  }
}
node {
  name: "conv_pw_2_bn/Cast"
  op: "Cast"
  input: "conv_pw_2_bn/Prod"
  attr {
    key: "DstT"
    value {
      type: DT_FLOAT
    }
  }
  attr {
    key: "SrcT"
    value {
      type: DT_INT32
    }
  }
  attr {
    key: "Truncate"
    value {
      b: false
    }
  }
}
node {
  name: "conv_pw_2_bn/sub/y"
  op: "Const"
  attr {
    key: "dtype"
    value {
      type: DT_FLOAT
    }
  }
  attr {
    key: "value"
    value {
      tensor {
        dtype: DT_FLOAT
        tensor_shape {
        }
        float_val: 1.0010000467300415
      }
    }
  }
}
node {
  name: "conv_pw_2_bn/sub"
  op: "Sub"
  input: "conv_pw_2_bn/Cast"
  input: "conv_pw_2_bn/sub/y"
  attr {
    key: "T"
    value {
      type: DT_FLOAT
    }
  }
}
node {
  name: "conv_pw_2_bn/truediv"
  op: "RealDiv"
  input: "conv_pw_2_bn/Cast"
  input: "conv_pw_2_bn/sub"
  attr {
    key: "T"
    value {
      type: DT_FLOAT
    }
  }
}
node {
  name: "conv_pw_2_bn/mul"
  op: "Mul"
  input: "conv_pw_2_bn/FusedBatchNorm:2"
  input: "conv_pw_2_bn/truediv"
  attr {
    key: "T"
    value {
      type: DT_FLOAT
    }
  }
}
node {
  name: "conv_pw_2_bn/Const_6"
  op: "Const"
  attr {
    key: "_class"
    value {
      list {
        s: "loc:@conv_pw_2_bn/moving_mean"
      }
    }
  }
  attr {
    key: "dtype"
    value {
      type: DT_FLOAT
    }
  }
  attr {
    key: "value"
    value {
      tensor {
        dtype: DT_FLOAT
        tensor_shape {
        }
        float_val: 0.009999999776482582
      }
    }
  }
}
node {
  name: "conv_pw_2_bn/ReadVariableOp_2"
  op: "ReadVariableOp"
  input: "conv_pw_2_bn/moving_mean"
  attr {
    key: "dtype"
    value {
      type: DT_FLOAT
    }
  }
}
node {
  name: "conv_pw_2_bn/sub_1"
  op: "Sub"
  input: "conv_pw_2_bn/ReadVariableOp_2"
  input: "conv_pw_2_bn/FusedBatchNorm:1"
  attr {
    key: "T"
    value {
      type: DT_FLOAT
    }
  }
  attr {
    key: "_class"
    value {
      list {
        s: "loc:@conv_pw_2_bn/moving_mean"
      }
    }
  }
}
node {
  name: "conv_pw_2_bn/mul_1"
  op: "Mul"
  input: "conv_pw_2_bn/sub_1"
  input: "conv_pw_2_bn/Const_6"
  attr {
    key: "T"
    value {
      type: DT_FLOAT
    }
  }
  attr {
    key: "_class"
    value {
      list {
        s: "loc:@conv_pw_2_bn/moving_mean"
      }
    }
  }
}
node {
  name: "conv_pw_2_bn/AssignSubVariableOp"
  op: "AssignSubVariableOp"
  input: "conv_pw_2_bn/moving_mean"
  input: "conv_pw_2_bn/mul_1"
  attr {
    key: "_class"
    value {
      list {
        s: "loc:@conv_pw_2_bn/moving_mean"
      }
    }
  }
  attr {
    key: "dtype"
    value {
      type: DT_FLOAT
    }
  }
}
node {
  name: "conv_pw_2_bn/ReadVariableOp_3"
  op: "ReadVariableOp"
  input: "conv_pw_2_bn/moving_mean"
  input: "^conv_pw_2_bn/AssignSubVariableOp"
  attr {
    key: "_class"
    value {
      list {
        s: "loc:@conv_pw_2_bn/moving_mean"
      }
    }
  }
  attr {
    key: "dtype"
    value {
      type: DT_FLOAT
    }
  }
}
node {
  name: "conv_pw_2_bn/Const_7"
  op: "Const"
  attr {
    key: "_class"
    value {
      list {
        s: "loc:@conv_pw_2_bn/moving_variance"
      }
    }
  }
  attr {
    key: "dtype"
    value {
      type: DT_FLOAT
    }
  }
  attr {
    key: "value"
    value {
      tensor {
        dtype: DT_FLOAT
        tensor_shape {
        }
        float_val: 0.009999999776482582
      }
    }
  }
}
node {
  name: "conv_pw_2_bn/ReadVariableOp_4"
  op: "ReadVariableOp"
  input: "conv_pw_2_bn/moving_variance"
  attr {
    key: "dtype"
    value {
      type: DT_FLOAT
    }
  }
}
node {
  name: "conv_pw_2_bn/sub_2"
  op: "Sub"
  input: "conv_pw_2_bn/ReadVariableOp_4"
  input: "conv_pw_2_bn/mul"
  attr {
    key: "T"
    value {
      type: DT_FLOAT
    }
  }
  attr {
    key: "_class"
    value {
      list {
        s: "loc:@conv_pw_2_bn/moving_variance"
      }
    }
  }
}
node {
  name: "conv_pw_2_bn/mul_2"
  op: "Mul"
  input: "conv_pw_2_bn/sub_2"
  input: "conv_pw_2_bn/Const_7"
  attr {
    key: "T"
    value {
      type: DT_FLOAT
    }
  }
  attr {
    key: "_class"
    value {
      list {
        s: "loc:@conv_pw_2_bn/moving_variance"
      }
    }
  }
}
node {
  name: "conv_pw_2_bn/AssignSubVariableOp_1"
  op: "AssignSubVariableOp"
  input: "conv_pw_2_bn/moving_variance"
  input: "conv_pw_2_bn/mul_2"
  attr {
    key: "_class"
    value {
      list {
        s: "loc:@conv_pw_2_bn/moving_variance"
      }
    }
  }
  attr {
    key: "dtype"
    value {
      type: DT_FLOAT
    }
  }
}
node {
  name: "conv_pw_2_bn/ReadVariableOp_5"
  op: "ReadVariableOp"
  input: "conv_pw_2_bn/moving_variance"
  input: "^conv_pw_2_bn/AssignSubVariableOp_1"
  attr {
    key: "_class"
    value {
      list {
        s: "loc:@conv_pw_2_bn/moving_variance"
      }
    }
  }
  attr {
    key: "dtype"
    value {
      type: DT_FLOAT
    }
  }
}
node {
  name: "conv_pw_2_bn/ReadVariableOp_6"
  op: "ReadVariableOp"
  input: "conv_pw_2_bn/gamma"
  attr {
    key: "dtype"
    value {
      type: DT_FLOAT
    }
  }
}
node {
  name: "conv_pw_2_bn/ReadVariableOp_7"
  op: "ReadVariableOp"
  input: "conv_pw_2_bn/beta"
  attr {
    key: "dtype"
    value {
      type: DT_FLOAT
    }
  }
}
node {
  name: "conv_pw_2_bn/FusedBatchNorm_1/ReadVariableOp"
  op: "ReadVariableOp"
  input: "conv_pw_2_bn/moving_mean"
  attr {
    key: "dtype"
    value {
      type: DT_FLOAT
    }
  }
}
node {
  name: "conv_pw_2_bn/FusedBatchNorm_1/ReadVariableOp_1"
  op: "ReadVariableOp"
  input: "conv_pw_2_bn/moving_variance"
  attr {
    key: "dtype"
    value {
      type: DT_FLOAT
    }
  }
}
node {
  name: "conv_pw_2_bn/FusedBatchNorm_1"
  op: "FusedBatchNorm"
  input: "conv_pw_2/convolution"
  input: "conv_pw_2_bn/ReadVariableOp_6"
  input: "conv_pw_2_bn/ReadVariableOp_7"
  input: "conv_pw_2_bn/FusedBatchNorm_1/ReadVariableOp"
  input: "conv_pw_2_bn/FusedBatchNorm_1/ReadVariableOp_1"
  attr {
    key: "T"
    value {
      type: DT_FLOAT
    }
  }
  attr {
    key: "data_format"
    value {
      s: "NHWC"
    }
  }
  attr {
    key: "epsilon"
    value {
      f: 0.0010000000474974513
    }
  }
  attr {
    key: "is_training"
    value {
      b: false
    }
  }
}
node {
  name: "conv_pw_2_relu/Relu6"
  op: "Relu6"
  input: "conv_pw_2_bn/FusedBatchNorm_1"
  attr {
    key: "T"
    value {
      type: DT_FLOAT
    }
  }
}
node {
  name: "conv_dw_3/random_uniform/shape"
  op: "Const"
  attr {
    key: "dtype"
    value {
      type: DT_INT32
    }
  }
  attr {
    key: "value"
    value {
      tensor {
        dtype: DT_INT32
        tensor_shape {
          dim {
            size: 4
          }
        }
        tensor_content: "\003\000\000\000\003\000\000\000@\000\000\000\001\000\000\000"
      }
    }
  }
}
node {
  name: "conv_dw_3/random_uniform/min"
  op: "Const"
  attr {
    key: "dtype"
    value {
      type: DT_FLOAT
    }
  }
  attr {
    key: "value"
    value {
      tensor {
        dtype: DT_FLOAT
        tensor_shape {
        }
        float_val: -0.10127393901348114
      }
    }
  }
}
node {
  name: "conv_dw_3/random_uniform/max"
  op: "Const"
  attr {
    key: "dtype"
    value {
      type: DT_FLOAT
    }
  }
  attr {
    key: "value"
    value {
      tensor {
        dtype: DT_FLOAT
        tensor_shape {
        }
        float_val: 0.10127393901348114
      }
    }
  }
}
node {
  name: "conv_dw_3/random_uniform/RandomUniform"
  op: "RandomUniform"
  input: "conv_dw_3/random_uniform/shape"
  attr {
    key: "T"
    value {
      type: DT_INT32
    }
  }
  attr {
    key: "dtype"
    value {
      type: DT_FLOAT
    }
  }
  attr {
    key: "seed"
    value {
      i: 87654321
    }
  }
  attr {
    key: "seed2"
    value {
      i: 5413971
    }
  }
}
node {
  name: "conv_dw_3/random_uniform/sub"
  op: "Sub"
  input: "conv_dw_3/random_uniform/max"
  input: "conv_dw_3/random_uniform/min"
  attr {
    key: "T"
    value {
      type: DT_FLOAT
    }
  }
}
node {
  name: "conv_dw_3/random_uniform/mul"
  op: "Mul"
  input: "conv_dw_3/random_uniform/RandomUniform"
  input: "conv_dw_3/random_uniform/sub"
  attr {
    key: "T"
    value {
      type: DT_FLOAT
    }
  }
}
node {
  name: "conv_dw_3/random_uniform"
  op: "Add"
  input: "conv_dw_3/random_uniform/mul"
  input: "conv_dw_3/random_uniform/min"
  attr {
    key: "T"
    value {
      type: DT_FLOAT
    }
  }
}
node {
  name: "conv_dw_3/depthwise_kernel"
  op: "VarHandleOp"
  attr {
    key: "_class"
    value {
      list {
        s: "loc:@conv_dw_3/depthwise_kernel"
      }
    }
  }
  attr {
    key: "container"
    value {
      s: ""
    }
  }
  attr {
    key: "dtype"
    value {
      type: DT_FLOAT
    }
  }
  attr {
    key: "shape"
    value {
      shape {
        dim {
          size: 3
        }
        dim {
          size: 3
        }
        dim {
          size: 64
        }
        dim {
          size: 1
        }
      }
    }
  }
  attr {
    key: "shared_name"
    value {
      s: "conv_dw_3/depthwise_kernel"
    }
  }
}
node {
  name: "conv_dw_3/depthwise_kernel/IsInitialized/VarIsInitializedOp"
  op: "VarIsInitializedOp"
  input: "conv_dw_3/depthwise_kernel"
}
node {
  name: "conv_dw_3/depthwise_kernel/Assign"
  op: "AssignVariableOp"
  input: "conv_dw_3/depthwise_kernel"
  input: "conv_dw_3/random_uniform"
  attr {
    key: "_class"
    value {
      list {
        s: "loc:@conv_dw_3/depthwise_kernel"
      }
    }
  }
  attr {
    key: "dtype"
    value {
      type: DT_FLOAT
    }
  }
}
node {
  name: "conv_dw_3/depthwise_kernel/Read/ReadVariableOp"
  op: "ReadVariableOp"
  input: "conv_dw_3/depthwise_kernel"
  attr {
    key: "_class"
    value {
      list {
        s: "loc:@conv_dw_3/depthwise_kernel"
      }
    }
  }
  attr {
    key: "dtype"
    value {
      type: DT_FLOAT
    }
  }
}
node {
  name: "conv_dw_3/depthwise/ReadVariableOp"
  op: "ReadVariableOp"
  input: "conv_dw_3/depthwise_kernel"
  attr {
    key: "dtype"
    value {
      type: DT_FLOAT
    }
  }
}
node {
  name: "conv_dw_3/depthwise/Shape"
  op: "Const"
  attr {
    key: "dtype"
    value {
      type: DT_INT32
    }
  }
  attr {
    key: "value"
    value {
      tensor {
        dtype: DT_INT32
        tensor_shape {
          dim {
            size: 4
          }
        }
        tensor_content: "\003\000\000\000\003\000\000\000@\000\000\000\001\000\000\000"
      }
    }
  }
}
node {
  name: "conv_dw_3/depthwise/dilation_rate"
  op: "Const"
  attr {
    key: "dtype"
    value {
      type: DT_INT32
    }
  }
  attr {
    key: "value"
    value {
      tensor {
        dtype: DT_INT32
        tensor_shape {
          dim {
            size: 2
          }
        }
        tensor_content: "\001\000\000\000\001\000\000\000"
      }
    }
  }
}
node {
  name: "conv_dw_3/depthwise"
  op: "DepthwiseConv2dNative"
  input: "conv_pw_2_relu/Relu6"
  input: "conv_dw_3/depthwise/ReadVariableOp"
  attr {
    key: "T"
    value {
      type: DT_FLOAT
    }
  }
  attr {
    key: "data_format"
    value {
      s: "NHWC"
    }
  }
  attr {
    key: "dilations"
    value {
      list {
        i: 1
        i: 1
        i: 1
        i: 1
      }
    }
  }
  attr {
    key: "padding"
    value {
      s: "SAME"
    }
  }
  attr {
    key: "strides"
    value {
      list {
        i: 1
        i: 1
        i: 1
        i: 1
      }
    }
  }
}
node {
  name: "conv_dw_3_bn/Const"
  op: "Const"
  attr {
    key: "dtype"
    value {
      type: DT_FLOAT
    }
  }
  attr {
    key: "value"
    value {
      tensor {
        dtype: DT_FLOAT
        tensor_shape {
          dim {
            size: 64
          }
        }
        float_val: 1.0
      }
    }
  }
}
node {
  name: "conv_dw_3_bn/gamma"
  op: "VarHandleOp"
  attr {
    key: "_class"
    value {
      list {
        s: "loc:@conv_dw_3_bn/gamma"
      }
    }
  }
  attr {
    key: "container"
    value {
      s: ""
    }
  }
  attr {
    key: "dtype"
    value {
      type: DT_FLOAT
    }
  }
  attr {
    key: "shape"
    value {
      shape {
        dim {
          size: 64
        }
      }
    }
  }
  attr {
    key: "shared_name"
    value {
      s: "conv_dw_3_bn/gamma"
    }
  }
}
node {
  name: "conv_dw_3_bn/gamma/IsInitialized/VarIsInitializedOp"
  op: "VarIsInitializedOp"
  input: "conv_dw_3_bn/gamma"
}
node {
  name: "conv_dw_3_bn/gamma/Assign"
  op: "AssignVariableOp"
  input: "conv_dw_3_bn/gamma"
  input: "conv_dw_3_bn/Const"
  attr {
    key: "_class"
    value {
      list {
        s: "loc:@conv_dw_3_bn/gamma"
      }
    }
  }
  attr {
    key: "dtype"
    value {
      type: DT_FLOAT
    }
  }
}
node {
  name: "conv_dw_3_bn/gamma/Read/ReadVariableOp"
  op: "ReadVariableOp"
  input: "conv_dw_3_bn/gamma"
  attr {
    key: "_class"
    value {
      list {
        s: "loc:@conv_dw_3_bn/gamma"
      }
    }
  }
  attr {
    key: "dtype"
    value {
      type: DT_FLOAT
    }
  }
}
node {
  name: "conv_dw_3_bn/Const_1"
  op: "Const"
  attr {
    key: "dtype"
    value {
      type: DT_FLOAT
    }
  }
  attr {
    key: "value"
    value {
      tensor {
        dtype: DT_FLOAT
        tensor_shape {
          dim {
            size: 64
          }
        }
        float_val: 0.0
      }
    }
  }
}
node {
  name: "conv_dw_3_bn/beta"
  op: "VarHandleOp"
  attr {
    key: "_class"
    value {
      list {
        s: "loc:@conv_dw_3_bn/beta"
      }
    }
  }
  attr {
    key: "container"
    value {
      s: ""
    }
  }
  attr {
    key: "dtype"
    value {
      type: DT_FLOAT
    }
  }
  attr {
    key: "shape"
    value {
      shape {
        dim {
          size: 64
        }
      }
    }
  }
  attr {
    key: "shared_name"
    value {
      s: "conv_dw_3_bn/beta"
    }
  }
}
node {
  name: "conv_dw_3_bn/beta/IsInitialized/VarIsInitializedOp"
  op: "VarIsInitializedOp"
  input: "conv_dw_3_bn/beta"
}
node {
  name: "conv_dw_3_bn/beta/Assign"
  op: "AssignVariableOp"
  input: "conv_dw_3_bn/beta"
  input: "conv_dw_3_bn/Const_1"
  attr {
    key: "_class"
    value {
      list {
        s: "loc:@conv_dw_3_bn/beta"
      }
    }
  }
  attr {
    key: "dtype"
    value {
      type: DT_FLOAT
    }
  }
}
node {
  name: "conv_dw_3_bn/beta/Read/ReadVariableOp"
  op: "ReadVariableOp"
  input: "conv_dw_3_bn/beta"
  attr {
    key: "_class"
    value {
      list {
        s: "loc:@conv_dw_3_bn/beta"
      }
    }
  }
  attr {
    key: "dtype"
    value {
      type: DT_FLOAT
    }
  }
}
node {
  name: "conv_dw_3_bn/Const_2"
  op: "Const"
  attr {
    key: "dtype"
    value {
      type: DT_FLOAT
    }
  }
  attr {
    key: "value"
    value {
      tensor {
        dtype: DT_FLOAT
        tensor_shape {
          dim {
            size: 64
          }
        }
        float_val: 0.0
      }
    }
  }
}
node {
  name: "conv_dw_3_bn/moving_mean"
  op: "VarHandleOp"
  attr {
    key: "_class"
    value {
      list {
        s: "loc:@conv_dw_3_bn/moving_mean"
      }
    }
  }
  attr {
    key: "container"
    value {
      s: ""
    }
  }
  attr {
    key: "dtype"
    value {
      type: DT_FLOAT
    }
  }
  attr {
    key: "shape"
    value {
      shape {
        dim {
          size: 64
        }
      }
    }
  }
  attr {
    key: "shared_name"
    value {
      s: "conv_dw_3_bn/moving_mean"
    }
  }
}
node {
  name: "conv_dw_3_bn/moving_mean/IsInitialized/VarIsInitializedOp"
  op: "VarIsInitializedOp"
  input: "conv_dw_3_bn/moving_mean"
}
node {
  name: "conv_dw_3_bn/moving_mean/Assign"
  op: "AssignVariableOp"
  input: "conv_dw_3_bn/moving_mean"
  input: "conv_dw_3_bn/Const_2"
  attr {
    key: "_class"
    value {
      list {
        s: "loc:@conv_dw_3_bn/moving_mean"
      }
    }
  }
  attr {
    key: "dtype"
    value {
      type: DT_FLOAT
    }
  }
}
node {
  name: "conv_dw_3_bn/moving_mean/Read/ReadVariableOp"
  op: "ReadVariableOp"
  input: "conv_dw_3_bn/moving_mean"
  attr {
    key: "_class"
    value {
      list {
        s: "loc:@conv_dw_3_bn/moving_mean"
      }
    }
  }
  attr {
    key: "dtype"
    value {
      type: DT_FLOAT
    }
  }
}
node {
  name: "conv_dw_3_bn/Const_3"
  op: "Const"
  attr {
    key: "dtype"
    value {
      type: DT_FLOAT
    }
  }
  attr {
    key: "value"
    value {
      tensor {
        dtype: DT_FLOAT
        tensor_shape {
          dim {
            size: 64
          }
        }
        float_val: 1.0
      }
    }
  }
}
node {
  name: "conv_dw_3_bn/moving_variance"
  op: "VarHandleOp"
  attr {
    key: "_class"
    value {
      list {
        s: "loc:@conv_dw_3_bn/moving_variance"
      }
    }
  }
  attr {
    key: "container"
    value {
      s: ""
    }
  }
  attr {
    key: "dtype"
    value {
      type: DT_FLOAT
    }
  }
  attr {
    key: "shape"
    value {
      shape {
        dim {
          size: 64
        }
      }
    }
  }
  attr {
    key: "shared_name"
    value {
      s: "conv_dw_3_bn/moving_variance"
    }
  }
}
node {
  name: "conv_dw_3_bn/moving_variance/IsInitialized/VarIsInitializedOp"
  op: "VarIsInitializedOp"
  input: "conv_dw_3_bn/moving_variance"
}
node {
  name: "conv_dw_3_bn/moving_variance/Assign"
  op: "AssignVariableOp"
  input: "conv_dw_3_bn/moving_variance"
  input: "conv_dw_3_bn/Const_3"
  attr {
    key: "_class"
    value {
      list {
        s: "loc:@conv_dw_3_bn/moving_variance"
      }
    }
  }
  attr {
    key: "dtype"
    value {
      type: DT_FLOAT
    }
  }
}
node {
  name: "conv_dw_3_bn/moving_variance/Read/ReadVariableOp"
  op: "ReadVariableOp"
  input: "conv_dw_3_bn/moving_variance"
  attr {
    key: "_class"
    value {
      list {
        s: "loc:@conv_dw_3_bn/moving_variance"
      }
    }
  }
  attr {
    key: "dtype"
    value {
      type: DT_FLOAT
    }
  }
}
node {
  name: "conv_dw_3_bn/ReadVariableOp"
  op: "ReadVariableOp"
  input: "conv_dw_3_bn/gamma"
  attr {
    key: "dtype"
    value {
      type: DT_FLOAT
    }
  }
}
node {
  name: "conv_dw_3_bn/ReadVariableOp_1"
  op: "ReadVariableOp"
  input: "conv_dw_3_bn/beta"
  attr {
    key: "dtype"
    value {
      type: DT_FLOAT
    }
  }
}
node {
  name: "conv_dw_3_bn/Const_4"
  op: "Const"
  attr {
    key: "dtype"
    value {
      type: DT_FLOAT
    }
  }
  attr {
    key: "value"
    value {
      tensor {
        dtype: DT_FLOAT
        tensor_shape {
          dim {
          }
        }
      }
    }
  }
}
node {
  name: "conv_dw_3_bn/Const_5"
  op: "Const"
  attr {
    key: "dtype"
    value {
      type: DT_FLOAT
    }
  }
  attr {
    key: "value"
    value {
      tensor {
        dtype: DT_FLOAT
        tensor_shape {
          dim {
          }
        }
      }
    }
  }
}
node {
  name: "conv_dw_3_bn/FusedBatchNorm"
  op: "FusedBatchNorm"
  input: "conv_dw_3/depthwise"
  input: "conv_dw_3_bn/ReadVariableOp"
  input: "conv_dw_3_bn/ReadVariableOp_1"
  input: "conv_dw_3_bn/Const_4"
  input: "conv_dw_3_bn/Const_5"
  attr {
    key: "T"
    value {
      type: DT_FLOAT
    }
  }
  attr {
    key: "data_format"
    value {
      s: "NHWC"
    }
  }
  attr {
    key: "epsilon"
    value {
      f: 0.0010000000474974513
    }
  }
  attr {
    key: "is_training"
    value {
      b: true
    }
  }
}
node {
  name: "conv_dw_3_bn/Shape"
  op: "Shape"
  input: "conv_dw_3/depthwise"
  attr {
    key: "T"
    value {
      type: DT_FLOAT
    }
  }
  attr {
    key: "out_type"
    value {
      type: DT_INT32
    }
  }
}
node {
  name: "conv_dw_3_bn/strided_slice/stack"
  op: "Const"
  attr {
    key: "dtype"
    value {
      type: DT_INT32
    }
  }
  attr {
    key: "value"
    value {
      tensor {
        dtype: DT_INT32
        tensor_shape {
          dim {
            size: 1
          }
        }
        int_val: 0
      }
    }
  }
}
node {
  name: "conv_dw_3_bn/strided_slice/stack_1"
  op: "Const"
  attr {
    key: "dtype"
    value {
      type: DT_INT32
    }
  }
  attr {
    key: "value"
    value {
      tensor {
        dtype: DT_INT32
        tensor_shape {
          dim {
            size: 1
          }
        }
        int_val: 1
      }
    }
  }
}
node {
  name: "conv_dw_3_bn/strided_slice/stack_2"
  op: "Const"
  attr {
    key: "dtype"
    value {
      type: DT_INT32
    }
  }
  attr {
    key: "value"
    value {
      tensor {
        dtype: DT_INT32
        tensor_shape {
          dim {
            size: 1
          }
        }
        int_val: 1
      }
    }
  }
}
node {
  name: "conv_dw_3_bn/strided_slice"
  op: "StridedSlice"
  input: "conv_dw_3_bn/Shape"
  input: "conv_dw_3_bn/strided_slice/stack"
  input: "conv_dw_3_bn/strided_slice/stack_1"
  input: "conv_dw_3_bn/strided_slice/stack_2"
  attr {
    key: "Index"
    value {
      type: DT_INT32
    }
  }
  attr {
    key: "T"
    value {
      type: DT_INT32
    }
  }
  attr {
    key: "begin_mask"
    value {
      i: 0
    }
  }
  attr {
    key: "ellipsis_mask"
    value {
      i: 0
    }
  }
  attr {
    key: "end_mask"
    value {
      i: 0
    }
  }
  attr {
    key: "new_axis_mask"
    value {
      i: 0
    }
  }
  attr {
    key: "shrink_axis_mask"
    value {
      i: 1
    }
  }
}
node {
  name: "conv_dw_3_bn/Shape_1"
  op: "Shape"
  input: "conv_dw_3/depthwise"
  attr {
    key: "T"
    value {
      type: DT_FLOAT
    }
  }
  attr {
    key: "out_type"
    value {
      type: DT_INT32
    }
  }
}
node {
  name: "conv_dw_3_bn/strided_slice_1/stack"
  op: "Const"
  attr {
    key: "dtype"
    value {
      type: DT_INT32
    }
  }
  attr {
    key: "value"
    value {
      tensor {
        dtype: DT_INT32
        tensor_shape {
          dim {
            size: 1
          }
        }
        int_val: 1
      }
    }
  }
}
node {
  name: "conv_dw_3_bn/strided_slice_1/stack_1"
  op: "Const"
  attr {
    key: "dtype"
    value {
      type: DT_INT32
    }
  }
  attr {
    key: "value"
    value {
      tensor {
        dtype: DT_INT32
        tensor_shape {
          dim {
            size: 1
          }
        }
        int_val: 2
      }
    }
  }
}
node {
  name: "conv_dw_3_bn/strided_slice_1/stack_2"
  op: "Const"
  attr {
    key: "dtype"
    value {
      type: DT_INT32
    }
  }
  attr {
    key: "value"
    value {
      tensor {
        dtype: DT_INT32
        tensor_shape {
          dim {
            size: 1
          }
        }
        int_val: 1
      }
    }
  }
}
node {
  name: "conv_dw_3_bn/strided_slice_1"
  op: "StridedSlice"
  input: "conv_dw_3_bn/Shape_1"
  input: "conv_dw_3_bn/strided_slice_1/stack"
  input: "conv_dw_3_bn/strided_slice_1/stack_1"
  input: "conv_dw_3_bn/strided_slice_1/stack_2"
  attr {
    key: "Index"
    value {
      type: DT_INT32
    }
  }
  attr {
    key: "T"
    value {
      type: DT_INT32
    }
  }
  attr {
    key: "begin_mask"
    value {
      i: 0
    }
  }
  attr {
    key: "ellipsis_mask"
    value {
      i: 0
    }
  }
  attr {
    key: "end_mask"
    value {
      i: 0
    }
  }
  attr {
    key: "new_axis_mask"
    value {
      i: 0
…
        }
      }
    }
  }
}
node {
  name: "AssignVariableOp_324"
  op: "AssignVariableOp"
  input: "training/Adam/vhat_8_1"
  input: "Placeholder_324"
  attr {
    key: "dtype"
    value {
      type: DT_FLOAT
    }
  }
}
node {
  name: "ReadVariableOp_324"
  op: "ReadVariableOp"
  input: "training/Adam/vhat_8_1"
  input: "^AssignVariableOp_324"
  attr {
    key: "dtype"
    value {
      type: DT_FLOAT
    }
  }
}
node {
  name: "Placeholder_325"
  op: "Placeholder"
  attr {
    key: "dtype"
    value {
      type: DT_FLOAT
    }
  }
  attr {
    key: "shape"
    value {
      shape {
        dim {
          size: 1
        }
      }
    }
  }
}
node {
  name: "AssignVariableOp_325"
  op: "AssignVariableOp"
  input: "training/Adam/vhat_9_1"
  input: "Placeholder_325"
  attr {
    key: "dtype"
    value {
      type: DT_FLOAT
    }
  }
}
node {
  name: "ReadVariableOp_325"
  op: "ReadVariableOp"
  input: "training/Adam/vhat_9_1"
  input: "^AssignVariableOp_325"
  attr {
    key: "dtype"
    value {
      type: DT_FLOAT
    }
  }
}
node {
  name: "Placeholder_326"
  op: "Placeholder"
  attr {
    key: "dtype"
    value {
      type: DT_FLOAT
    }
  }
  attr {
    key: "shape"
    value {
      shape {
        dim {
          size: 1
        }
      }
    }
  }
}
node {
  name: "AssignVariableOp_326"
  op: "AssignVariableOp"
  input: "training/Adam/vhat_10_1"
  input: "Placeholder_326"
  attr {
    key: "dtype"
    value {
      type: DT_FLOAT
    }
  }
}
node {
  name: "ReadVariableOp_326"
  op: "ReadVariableOp"
  input: "training/Adam/vhat_10_1"
  input: "^AssignVariableOp_326"
  attr {
    key: "dtype"
    value {
      type: DT_FLOAT
    }
  }
}
node {
  name: "Placeholder_327"
  op: "Placeholder"
  attr {
    key: "dtype"
    value {
      type: DT_FLOAT
    }
  }
  attr {
    key: "shape"
    value {
      shape {
        dim {
          size: 1
        }
      }
    }
  }
}
node {
  name: "AssignVariableOp_327"
  op: "AssignVariableOp"
  input: "training/Adam/vhat_11_1"
  input: "Placeholder_327"
  attr {
    key: "dtype"
    value {
      type: DT_FLOAT
    }
  }
}
node {
  name: "ReadVariableOp_327"
  op: "ReadVariableOp"
  input: "training/Adam/vhat_11_1"
  input: "^AssignVariableOp_327"
  attr {
    key: "dtype"
    value {
      type: DT_FLOAT
    }
  }
}
node {
  name: "Placeholder_328"
  op: "Placeholder"
  attr {
    key: "dtype"
    value {
      type: DT_FLOAT
    }
  }
  attr {
    key: "shape"
    value {
      shape {
        dim {
          size: 1
        }
      }
    }
  }
}
node {
  name: "AssignVariableOp_328"
  op: "AssignVariableOp"
  input: "training/Adam/vhat_12_1"
  input: "Placeholder_328"
  attr {
    key: "dtype"
    value {
      type: DT_FLOAT
    }
  }
}
node {
  name: "ReadVariableOp_328"
  op: "ReadVariableOp"
  input: "training/Adam/vhat_12_1"
  input: "^AssignVariableOp_328"
  attr {
    key: "dtype"
    value {
      type: DT_FLOAT
    }
  }
}
node {
  name: "Placeholder_329"
  op: "Placeholder"
  attr {
    key: "dtype"
    value {
      type: DT_FLOAT
    }
  }
  attr {
    key: "shape"
    value {
      shape {
        dim {
          size: 1
        }
      }
    }
  }
}
node {
  name: "AssignVariableOp_329"
  op: "AssignVariableOp"
  input: "training/Adam/vhat_13_1"
  input: "Placeholder_329"
  attr {
    key: "dtype"
    value {
      type: DT_FLOAT
    }
  }
}
node {
  name: "ReadVariableOp_329"
  op: "ReadVariableOp"
  input: "training/Adam/vhat_13_1"
  input: "^AssignVariableOp_329"
  attr {
    key: "dtype"
    value {
      type: DT_FLOAT
    }
  }
}
node {
  name: "Placeholder_330"
  op: "Placeholder"
  attr {
    key: "dtype"
    value {
      type: DT_FLOAT
    }
  }
  attr {
    key: "shape"
    value {
      shape {
        dim {
          size: 1
        }
      }
    }
  }
}
node {
  name: "AssignVariableOp_330"
  op: "AssignVariableOp"
  input: "training/Adam/vhat_14_1"
  input: "Placeholder_330"
  attr {
    key: "dtype"
    value {
      type: DT_FLOAT
    }
  }
}
node {
  name: "ReadVariableOp_330"
  op: "ReadVariableOp"
  input: "training/Adam/vhat_14_1"
  input: "^AssignVariableOp_330"
  attr {
    key: "dtype"
    value {
      type: DT_FLOAT
    }
  }
}
node {
  name: "Placeholder_331"
  op: "Placeholder"
  attr {
    key: "dtype"
    value {
      type: DT_FLOAT
    }
  }
  attr {
    key: "shape"
    value {
      shape {
        dim {
          size: 1
        }
      }
    }
  }
}
node {
  name: "AssignVariableOp_331"
  op: "AssignVariableOp"
  input: "training/Adam/vhat_15_1"
  input: "Placeholder_331"
  attr {
    key: "dtype"
    value {
      type: DT_FLOAT
    }
  }
}
node {
  name: "ReadVariableOp_331"
  op: "ReadVariableOp"
  input: "training/Adam/vhat_15_1"
  input: "^AssignVariableOp_331"
  attr {
    key: "dtype"
    value {
      type: DT_FLOAT
    }
  }
}
node {
  name: "Placeholder_332"
  op: "Placeholder"
  attr {
    key: "dtype"
    value {
      type: DT_FLOAT
    }
  }
  attr {
    key: "shape"
    value {
      shape {
        dim {
          size: 1
        }
      }
    }
  }
}
node {
  name: "AssignVariableOp_332"
  op: "AssignVariableOp"
  input: "training/Adam/vhat_16_1"
  input: "Placeholder_332"
  attr {
    key: "dtype"
    value {
      type: DT_FLOAT
    }
  }
}
node {
  name: "ReadVariableOp_332"
  op: "ReadVariableOp"
  input: "training/Adam/vhat_16_1"
  input: "^AssignVariableOp_332"
  attr {
    key: "dtype"
    value {
      type: DT_FLOAT
    }
  }
}
node {
  name: "Placeholder_333"
  op: "Placeholder"
  attr {
    key: "dtype"
    value {
      type: DT_FLOAT
    }
  }
  attr {
    key: "shape"
    value {
      shape {
        dim {
          size: 1
        }
      }
    }
  }
}
node {
  name: "AssignVariableOp_333"
  op: "AssignVariableOp"
  input: "training/Adam/vhat_17_1"
  input: "Placeholder_333"
  attr {
    key: "dtype"
    value {
      type: DT_FLOAT
    }
  }
}
node {
  name: "ReadVariableOp_333"
  op: "ReadVariableOp"
  input: "training/Adam/vhat_17_1"
  input: "^AssignVariableOp_333"
  attr {
    key: "dtype"
    value {
      type: DT_FLOAT
    }
  }
}
node {
  name: "Placeholder_334"
  op: "Placeholder"
  attr {
    key: "dtype"
    value {
      type: DT_FLOAT
    }
  }
  attr {
    key: "shape"
    value {
      shape {
        dim {
          size: 1
        }
      }
    }
  }
}
node {
  name: "AssignVariableOp_334"
  op: "AssignVariableOp"
  input: "training/Adam/vhat_18_1"
  input: "Placeholder_334"
  attr {
    key: "dtype"
    value {
      type: DT_FLOAT
    }
  }
}
node {
  name: "ReadVariableOp_334"
  op: "ReadVariableOp"
  input: "training/Adam/vhat_18_1"
  input: "^AssignVariableOp_334"
  attr {
    key: "dtype"
    value {
      type: DT_FLOAT
    }
  }
}
node {
  name: "Placeholder_335"
  op: "Placeholder"
  attr {
    key: "dtype"
    value {
      type: DT_FLOAT
    }
  }
  attr {
    key: "shape"
    value {
      shape {
        dim {
          size: 1
        }
      }
    }
  }
}
node {
  name: "AssignVariableOp_335"
  op: "AssignVariableOp"
  input: "training/Adam/vhat_19_1"
  input: "Placeholder_335"
  attr {
    key: "dtype"
    value {
      type: DT_FLOAT
    }
  }
}
node {
  name: "ReadVariableOp_335"
  op: "ReadVariableOp"
  input: "training/Adam/vhat_19_1"
  input: "^AssignVariableOp_335"
  attr {
    key: "dtype"
    value {
      type: DT_FLOAT
    }
  }
}
node {
  name: "Placeholder_336"
  op: "Placeholder"
  attr {
    key: "dtype"
    value {
      type: DT_FLOAT
    }
  }
  attr {
    key: "shape"
    value {
      shape {
        dim {
          size: 1
        }
      }
    }
  }
}
node {
  name: "AssignVariableOp_336"
  op: "AssignVariableOp"
  input: "training/Adam/vhat_20_1"
  input: "Placeholder_336"
  attr {
    key: "dtype"
    value {
      type: DT_FLOAT
    }
  }
}
node {
  name: "ReadVariableOp_336"
  op: "ReadVariableOp"
  input: "training/Adam/vhat_20_1"
  input: "^AssignVariableOp_336"
  attr {
    key: "dtype"
    value {
      type: DT_FLOAT
    }
  }
}
node {
  name: "Placeholder_337"
  op: "Placeholder"
  attr {
    key: "dtype"
    value {
      type: DT_FLOAT
    }
  }
  attr {
    key: "shape"
    value {
      shape {
        dim {
          size: 1
        }
      }
    }
  }
}
node {
  name: "AssignVariableOp_337"
  op: "AssignVariableOp"
  input: "training/Adam/vhat_21_1"
  input: "Placeholder_337"
  attr {
    key: "dtype"
    value {
      type: DT_FLOAT
    }
  }
}
node {
  name: "ReadVariableOp_337"
  op: "ReadVariableOp"
  input: "training/Adam/vhat_21_1"
  input: "^AssignVariableOp_337"
  attr {
    key: "dtype"
    value {
      type: DT_FLOAT
    }
  }
}
node {
  name: "Placeholder_338"
  op: "Placeholder"
  attr {
    key: "dtype"
    value {
      type: DT_FLOAT
    }
  }
  attr {
    key: "shape"
    value {
      shape {
        dim {
          size: 1
        }
      }
    }
  }
}
node {
  name: "AssignVariableOp_338"
  op: "AssignVariableOp"
  input: "training/Adam/vhat_22_1"
  input: "Placeholder_338"
  attr {
    key: "dtype"
    value {
      type: DT_FLOAT
    }
  }
}
node {
  name: "ReadVariableOp_338"
  op: "ReadVariableOp"
  input: "training/Adam/vhat_22_1"
  input: "^AssignVariableOp_338"
  attr {
    key: "dtype"
    value {
      type: DT_FLOAT
    }
  }
}
node {
  name: "Placeholder_339"
  op: "Placeholder"
  attr {
    key: "dtype"
    value {
      type: DT_FLOAT
    }
  }
  attr {
    key: "shape"
    value {
      shape {
        dim {
          size: 1
        }
      }
    }
  }
}
node {
  name: "AssignVariableOp_339"
  op: "AssignVariableOp"
  input: "training/Adam/vhat_23_1"
  input: "Placeholder_339"
  attr {
    key: "dtype"
    value {
      type: DT_FLOAT
    }
  }
}
node {
  name: "ReadVariableOp_339"
  op: "ReadVariableOp"
  input: "training/Adam/vhat_23_1"
  input: "^AssignVariableOp_339"
  attr {
    key: "dtype"
    value {
      type: DT_FLOAT
    }
  }
}
node {
  name: "Placeholder_340"
  op: "Placeholder"
  attr {
    key: "dtype"
    value {
      type: DT_FLOAT
    }
  }
  attr {
    key: "shape"
    value {
      shape {
        dim {
          size: 1
        }
      }
    }
  }
}
node {
  name: "AssignVariableOp_340"
  op: "AssignVariableOp"
  input: "training/Adam/vhat_24_1"
  input: "Placeholder_340"
  attr {
    key: "dtype"
    value {
      type: DT_FLOAT
    }
  }
}
node {
  name: "ReadVariableOp_340"
  op: "ReadVariableOp"
  input: "training/Adam/vhat_24_1"
  input: "^AssignVariableOp_340"
  attr {
    key: "dtype"
    value {
      type: DT_FLOAT
    }
  }
}
node {
  name: "Placeholder_341"
  op: "Placeholder"
  attr {
    key: "dtype"
    value {
      type: DT_FLOAT
    }
  }
  attr {
    key: "shape"
    value {
      shape {
        dim {
          size: 1
        }
      }
    }
  }
}
node {
  name: "AssignVariableOp_341"
  op: "AssignVariableOp"
  input: "training/Adam/vhat_25_1"
  input: "Placeholder_341"
  attr {
    key: "dtype"
    value {
      type: DT_FLOAT
    }
  }
}
node {
  name: "ReadVariableOp_341"
  op: "ReadVariableOp"
  input: "training/Adam/vhat_25_1"
  input: "^AssignVariableOp_341"
  attr {
    key: "dtype"
    value {
      type: DT_FLOAT
    }
  }
}
node {
  name: "Placeholder_342"
  op: "Placeholder"
  attr {
    key: "dtype"
    value {
      type: DT_FLOAT
    }
  }
  attr {
    key: "shape"
    value {
      shape {
        dim {
          size: 1
        }
      }
    }
  }
}
node {
  name: "AssignVariableOp_342"
  op: "AssignVariableOp"
  input: "training/Adam/vhat_26_1"
  input: "Placeholder_342"
  attr {
    key: "dtype"
    value {
      type: DT_FLOAT
    }
  }
}
node {
  name: "ReadVariableOp_342"
  op: "ReadVariableOp"
  input: "training/Adam/vhat_26_1"
  input: "^AssignVariableOp_342"
  attr {
    key: "dtype"
    value {
      type: DT_FLOAT
    }
  }
}
node {
  name: "Placeholder_343"
  op: "Placeholder"
  attr {
    key: "dtype"
    value {
      type: DT_FLOAT
    }
  }
  attr {
    key: "shape"
    value {
      shape {
        dim {
          size: 1
        }
      }
    }
  }
}
node {
  name: "AssignVariableOp_343"
  op: "AssignVariableOp"
  input: "training/Adam/vhat_27_1"
  input: "Placeholder_343"
  attr {
    key: "dtype"
    value {
      type: DT_FLOAT
    }
  }
}
node {
  name: "ReadVariableOp_343"
  op: "ReadVariableOp"
  input: "training/Adam/vhat_27_1"
  input: "^AssignVariableOp_343"
  attr {
    key: "dtype"
    value {
      type: DT_FLOAT
    }
  }
}
node {
  name: "Placeholder_344"
  op: "Placeholder"
  attr {
    key: "dtype"
    value {
      type: DT_FLOAT
    }
  }
  attr {
    key: "shape"
    value {
      shape {
        dim {
          size: 1
        }
      }
    }
  }
}
node {
  name: "AssignVariableOp_344"
  op: "AssignVariableOp"
  input: "training/Adam/vhat_28_1"
  input: "Placeholder_344"
  attr {
    key: "dtype"
    value {
      type: DT_FLOAT
    }
  }
}
node {
  name: "ReadVariableOp_344"
  op: "ReadVariableOp"
  input: "training/Adam/vhat_28_1"
  input: "^AssignVariableOp_344"
  attr {
    key: "dtype"
    value {
      type: DT_FLOAT
    }
  }
}
node {
  name: "Placeholder_345"
  op: "Placeholder"
  attr {
    key: "dtype"
    value {
      type: DT_FLOAT
    }
  }
  attr {
    key: "shape"
    value {
      shape {
        dim {
          size: 1
        }
      }
    }
  }
}
node {
  name: "AssignVariableOp_345"
  op: "AssignVariableOp"
  input: "training/Adam/vhat_29_1"
  input: "Placeholder_345"
  attr {
    key: "dtype"
    value {
      type: DT_FLOAT
    }
  }
}
node {
  name: "ReadVariableOp_345"
  op: "ReadVariableOp"
  input: "training/Adam/vhat_29_1"
  input: "^AssignVariableOp_345"
  attr {
    key: "dtype"
    value {
      type: DT_FLOAT
    }
  }
}
node {
  name: "Placeholder_346"
  op: "Placeholder"
  attr {
    key: "dtype"
    value {
      type: DT_FLOAT
    }
  }
  attr {
    key: "shape"
    value {
      shape {
        dim {
          size: 1
        }
      }
    }
  }
}
node {
  name: "AssignVariableOp_346"
  op: "AssignVariableOp"
  input: "training/Adam/vhat_30_1"
  input: "Placeholder_346"
  attr {
    key: "dtype"
    value {
      type: DT_FLOAT
    }
  }
}
node {
  name: "ReadVariableOp_346"
  op: "ReadVariableOp"
  input: "training/Adam/vhat_30_1"
  input: "^AssignVariableOp_346"
  attr {
    key: "dtype"
    value {
      type: DT_FLOAT
    }
  }
}
node {
  name: "Placeholder_347"
  op: "Placeholder"
  attr {
    key: "dtype"
    value {
      type: DT_FLOAT
    }
  }
  attr {
    key: "shape"
    value {
      shape {
        dim {
          size: 1
        }
      }
    }
  }
}
node {
  name: "AssignVariableOp_347"
  op: "AssignVariableOp"
  input: "training/Adam/vhat_31_1"
  input: "Placeholder_347"
  attr {
    key: "dtype"
    value {
      type: DT_FLOAT
    }
  }
}
node {
  name: "ReadVariableOp_347"
  op: "ReadVariableOp"
  input: "training/Adam/vhat_31_1"
  input: "^AssignVariableOp_347"
  attr {
    key: "dtype"
    value {
      type: DT_FLOAT
    }
  }
}
node {
  name: "Placeholder_348"
  op: "Placeholder"
  attr {
    key: "dtype"
    value {
      type: DT_FLOAT
    }
  }
  attr {
    key: "shape"
    value {
      shape {
        dim {
          size: 1
        }
      }
    }
  }
}
node {
  name: "AssignVariableOp_348"
  op: "AssignVariableOp"
  input: "training/Adam/vhat_32_1"
  input: "Placeholder_348"
  attr {
    key: "dtype"
    value {
      type: DT_FLOAT
    }
  }
}
node {
  name: "ReadVariableOp_348"
  op: "ReadVariableOp"
  input: "training/Adam/vhat_32_1"
  input: "^AssignVariableOp_348"
  attr {
    key: "dtype"
    value {
      type: DT_FLOAT
    }
  }
}
node {
  name: "Placeholder_349"
  op: "Placeholder"
  attr {
    key: "dtype"
    value {
      type: DT_FLOAT
    }
  }
  attr {
    key: "shape"
    value {
      shape {
        dim {
          size: 1
        }
      }
    }
  }
}
node {
  name: "AssignVariableOp_349"
  op: "AssignVariableOp"
  input: "training/Adam/vhat_33_1"
  input: "Placeholder_349"
  attr {
    key: "dtype"
    value {
      type: DT_FLOAT
    }
  }
}
node {
  name: "ReadVariableOp_349"
  op: "ReadVariableOp"
  input: "training/Adam/vhat_33_1"
  input: "^AssignVariableOp_349"
  attr {
    key: "dtype"
    value {
      type: DT_FLOAT
    }
  }
}
node {
  name: "Placeholder_350"
  op: "Placeholder"
  attr {
    key: "dtype"
    value {
      type: DT_FLOAT
    }
  }
  attr {
    key: "shape"
    value {
      shape {
        dim {
          size: 1
        }
      }
    }
  }
}
node {
  name: "AssignVariableOp_350"
  op: "AssignVariableOp"
  input: "training/Adam/vhat_34_1"
  input: "Placeholder_350"
  attr {
    key: "dtype"
    value {
      type: DT_FLOAT
    }
  }
}
node {
  name: "ReadVariableOp_350"
  op: "ReadVariableOp"
  input: "training/Adam/vhat_34_1"
  input: "^AssignVariableOp_350"
  attr {
    key: "dtype"
    value {
      type: DT_FLOAT
    }
  }
}
node {
  name: "Placeholder_351"
  op: "Placeholder"
  attr {
    key: "dtype"
    value {
      type: DT_FLOAT
    }
  }
  attr {
    key: "shape"
    value {
      shape {
        dim {
          size: 1
        }
      }
    }
  }
}
node {
  name: "AssignVariableOp_351"
  op: "AssignVariableOp"
  input: "training/Adam/vhat_35_1"
  input: "Placeholder_351"
  attr {
    key: "dtype"
    value {
      type: DT_FLOAT
    }
  }
}
node {
  name: "ReadVariableOp_351"
  op: "ReadVariableOp"
  input: "training/Adam/vhat_35_1"
  input: "^AssignVariableOp_351"
  attr {
    key: "dtype"
    value {
      type: DT_FLOAT
    }
  }
}
node {
  name: "Placeholder_352"
  op: "Placeholder"
  attr {
    key: "dtype"
    value {
      type: DT_FLOAT
    }
  }
  attr {
    key: "shape"
    value {
      shape {
        dim {
          size: 1
        }
      }
    }
  }
}
node {
  name: "AssignVariableOp_352"
  op: "AssignVariableOp"
  input: "training/Adam/vhat_36_1"
  input: "Placeholder_352"
  attr {
    key: "dtype"
    value {
      type: DT_FLOAT
    }
  }
}
node {
  name: "ReadVariableOp_352"
  op: "ReadVariableOp"
  input: "training/Adam/vhat_36_1"
  input: "^AssignVariableOp_352"
  attr {
    key: "dtype"
    value {
      type: DT_FLOAT
    }
  }
}
node {
  name: "Placeholder_353"
  op: "Placeholder"
  attr {
    key: "dtype"
    value {
      type: DT_FLOAT
    }
  }
  attr {
    key: "shape"
    value {
      shape {
        dim {
          size: 1
        }
      }
    }
  }
}
node {
  name: "AssignVariableOp_353"
  op: "AssignVariableOp"
  input: "training/Adam/vhat_37_1"
  input: "Placeholder_353"
  attr {
    key: "dtype"
    value {
      type: DT_FLOAT
    }
  }
}
node {
  name: "ReadVariableOp_353"
  op: "ReadVariableOp"
  input: "training/Adam/vhat_37_1"
  input: "^AssignVariableOp_353"
  attr {
    key: "dtype"
    value {
      type: DT_FLOAT
    }
  }
}
node {
  name: "Placeholder_354"
  op: "Placeholder"
  attr {
    key: "dtype"
    value {
      type: DT_FLOAT
    }
  }
  attr {
    key: "shape"
    value {
      shape {
        dim {
          size: 1
        }
      }
    }
  }
}
node {
  name: "AssignVariableOp_354"
  op: "AssignVariableOp"
  input: "training/Adam/vhat_38_1"
  input: "Placeholder_354"
  attr {
    key: "dtype"
    value {
      type: DT_FLOAT
    }
  }
}
node {
  name: "ReadVariableOp_354"
  op: "ReadVariableOp"
  input: "training/Adam/vhat_38_1"
  input: "^AssignVariableOp_354"
  attr {
    key: "dtype"
    value {
      type: DT_FLOAT
    }
  }
}
node {
  name: "Placeholder_355"
  op: "Placeholder"
  attr {
    key: "dtype"
    value {
      type: DT_FLOAT
    }
  }
  attr {
    key: "shape"
    value {
      shape {
        dim {
          size: 1
        }
      }
    }
  }
}
node {
  name: "AssignVariableOp_355"
  op: "AssignVariableOp"
  input: "training/Adam/vhat_39_1"
  input: "Placeholder_355"
  attr {
    key: "dtype"
    value {
      type: DT_FLOAT
    }
  }
}
node {
  name: "ReadVariableOp_355"
  op: "ReadVariableOp"
  input: "training/Adam/vhat_39_1"
  input: "^AssignVariableOp_355"
  attr {
    key: "dtype"
    value {
      type: DT_FLOAT
    }
  }
}
node {
  name: "Placeholder_356"
  op: "Placeholder"
  attr {
    key: "dtype"
    value {
      type: DT_FLOAT
    }
  }
  attr {
    key: "shape"
    value {
      shape {
        dim {
          size: 1
        }
      }
    }
  }
}
node {
  name: "AssignVariableOp_356"
  op: "AssignVariableOp"
  input: "training/Adam/vhat_40_1"
  input: "Placeholder_356"
  attr {
    key: "dtype"
    value {
      type: DT_FLOAT
    }
  }
}
node {
  name: "ReadVariableOp_356"
  op: "ReadVariableOp"
  input: "training/Adam/vhat_40_1"
  input: "^AssignVariableOp_356"
  attr {
    key: "dtype"
    value {
      type: DT_FLOAT
    }
  }
}
node {
  name: "Placeholder_357"
  op: "Placeholder"
  attr {
    key: "dtype"
    value {
      type: DT_FLOAT
    }
  }
  attr {
    key: "shape"
    value {
      shape {
        dim {
          size: 1
        }
      }
    }
  }
}
node {
  name: "AssignVariableOp_357"
  op: "AssignVariableOp"
  input: "training/Adam/vhat_41_1"
  input: "Placeholder_357"
  attr {
    key: "dtype"
    value {
      type: DT_FLOAT
    }
  }
}
node {
  name: "ReadVariableOp_357"
  op: "ReadVariableOp"
  input: "training/Adam/vhat_41_1"
  input: "^AssignVariableOp_357"
  attr {
    key: "dtype"
    value {
      type: DT_FLOAT
    }
  }
}
node {
  name: "Placeholder_358"
  op: "Placeholder"
  attr {
    key: "dtype"
    value {
      type: DT_FLOAT
    }
  }
  attr {
    key: "shape"
    value {
      shape {
        dim {
          size: 1
        }
      }
    }
  }
}
node {
  name: "AssignVariableOp_358"
  op: "AssignVariableOp"
  input: "training/Adam/vhat_42_1"
  input: "Placeholder_358"
  attr {
    key: "dtype"
    value {
      type: DT_FLOAT
    }
  }
}
node {
  name: "ReadVariableOp_358"
  op: "ReadVariableOp"
  input: "training/Adam/vhat_42_1"
  input: "^AssignVariableOp_358"
  attr {
    key: "dtype"
    value {
      type: DT_FLOAT
    }
  }
}
node {
  name: "Placeholder_359"
  op: "Placeholder"
  attr {
    key: "dtype"
    value {
      type: DT_FLOAT
    }
  }
  attr {
    key: "shape"
    value {
      shape {
        dim {
          size: 1
        }
      }
    }
  }
}
node {
  name: "AssignVariableOp_359"
  op: "AssignVariableOp"
  input: "training/Adam/vhat_43_1"
  input: "Placeholder_359"
  attr {
    key: "dtype"
    value {
      type: DT_FLOAT
    }
  }
}
node {
  name: "ReadVariableOp_359"
  op: "ReadVariableOp"
  input: "training/Adam/vhat_43_1"
  input: "^AssignVariableOp_359"
  attr {
    key: "dtype"
    value {
      type: DT_FLOAT
    }
  }
}
node {
  name: "Placeholder_360"
  op: "Placeholder"
  attr {
    key: "dtype"
    value {
      type: DT_FLOAT
    }
  }
  attr {
    key: "shape"
    value {
      shape {
        dim {
          size: 1
        }
      }
    }
  }
}
node {
  name: "AssignVariableOp_360"
  op: "AssignVariableOp"
  input: "training/Adam/vhat_44_1"
  input: "Placeholder_360"
  attr {
    key: "dtype"
    value {
      type: DT_FLOAT
    }
  }
}
node {
  name: "ReadVariableOp_360"
  op: "ReadVariableOp"
  input: "training/Adam/vhat_44_1"
  input: "^AssignVariableOp_360"
  attr {
    key: "dtype"
    value {
      type: DT_FLOAT
    }
  }
}
node {
  name: "Placeholder_361"
  op: "Placeholder"
  attr {
    key: "dtype"
    value {
      type: DT_FLOAT
    }
  }
  attr {
    key: "shape"
    value {
      shape {
        dim {
          size: 1
        }
      }
    }
  }
}
node {
  name: "AssignVariableOp_361"
  op: "AssignVariableOp"
  input: "training/Adam/vhat_45_1"
  input: "Placeholder_361"
  attr {
    key: "dtype"
    value {
      type: DT_FLOAT
    }
  }
}
node {
  name: "ReadVariableOp_361"
  op: "ReadVariableOp"
  input: "training/Adam/vhat_45_1"
  input: "^AssignVariableOp_361"
  attr {
    key: "dtype"
    value {
      type: DT_FLOAT
    }
  }
}
node {
  name: "Placeholder_362"
  op: "Placeholder"
  attr {
    key: "dtype"
    value {
      type: DT_FLOAT
    }
  }
  attr {
    key: "shape"
    value {
      shape {
        dim {
          size: 1
        }
      }
    }
  }
}
node {
  name: "AssignVariableOp_362"
  op: "AssignVariableOp"
  input: "training/Adam/vhat_46_1"
  input: "Placeholder_362"
  attr {
    key: "dtype"
    value {
      type: DT_FLOAT
    }
  }
}
node {
  name: "ReadVariableOp_362"
  op: "ReadVariableOp"
  input: "training/Adam/vhat_46_1"
  input: "^AssignVariableOp_362"
  attr {
    key: "dtype"
    value {
      type: DT_FLOAT
    }
  }
}
node {
  name: "Placeholder_363"
  op: "Placeholder"
  attr {
    key: "dtype"
    value {
      type: DT_FLOAT
    }
  }
  attr {
    key: "shape"
    value {
      shape {
        dim {
          size: 1
        }
      }
    }
  }
}
node {
  name: "AssignVariableOp_363"
  op: "AssignVariableOp"
  input: "training/Adam/vhat_47_1"
  input: "Placeholder_363"
  attr {
    key: "dtype"
    value {
      type: DT_FLOAT
    }
  }
}
node {
  name: "ReadVariableOp_363"
  op: "ReadVariableOp"
  input: "training/Adam/vhat_47_1"
  input: "^AssignVariableOp_363"
  attr {
    key: "dtype"
    value {
      type: DT_FLOAT
    }
  }
}
node {
  name: "Placeholder_364"
  op: "Placeholder"
  attr {
    key: "dtype"
    value {
      type: DT_FLOAT
    }
  }
  attr {
    key: "shape"
    value {
      shape {
        dim {
          size: 1
        }
      }
    }
  }
}
node {
  name: "AssignVariableOp_364"
  op: "AssignVariableOp"
  input: "training/Adam/vhat_48_1"
  input: "Placeholder_364"
  attr {
    key: "dtype"
    value {
      type: DT_FLOAT
    }
  }
}
node {
  name: "ReadVariableOp_364"
  op: "ReadVariableOp"
  input: "training/Adam/vhat_48_1"
  input: "^AssignVariableOp_364"
  attr {
    key: "dtype"
    value {
      type: DT_FLOAT
    }
  }
}
node {
  name: "Placeholder_365"
  op: "Placeholder"
  attr {
    key: "dtype"
    value {
      type: DT_FLOAT
    }
  }
  attr {
    key: "shape"
    value {
      shape {
        dim {
          size: 1
        }
      }
    }
  }
}
node {
  name: "AssignVariableOp_365"
  op: "AssignVariableOp"
  input: "training/Adam/vhat_49_1"
  input: "Placeholder_365"
  attr {
    key: "dtype"
    value {
      type: DT_FLOAT
    }
  }
}
node {
  name: "ReadVariableOp_365"
  op: "ReadVariableOp"
  input: "training/Adam/vhat_49_1"
  input: "^AssignVariableOp_365"
  attr {
    key: "dtype"
    value {
      type: DT_FLOAT
    }
  }
}
node {
  name: "Placeholder_366"
  op: "Placeholder"
  attr {
    key: "dtype"
    value {
      type: DT_FLOAT
    }
  }
  attr {
    key: "shape"
    value {
      shape {
        dim {
          size: 1
        }
      }
    }
  }
}
node {
  name: "AssignVariableOp_366"
  op: "AssignVariableOp"
  input: "training/Adam/vhat_50_1"
  input: "Placeholder_366"
  attr {
    key: "dtype"
    value {
      type: DT_FLOAT
    }
  }
}
node {
  name: "ReadVariableOp_366"
  op: "ReadVariableOp"
  input: "training/Adam/vhat_50_1"
  input: "^AssignVariableOp_366"
  attr {
    key: "dtype"
    value {
      type: DT_FLOAT
    }
  }
}
node {
  name: "Placeholder_367"
  op: "Placeholder"
  attr {
    key: "dtype"
    value {
      type: DT_FLOAT
    }
  }
  attr {
    key: "shape"
    value {
      shape {
        dim {
          size: 1
        }
      }
    }
  }
}
node {
  name: "AssignVariableOp_367"
  op: "AssignVariableOp"
  input: "training/Adam/vhat_51_1"
  input: "Placeholder_367"
  attr {
    key: "dtype"
    value {
      type: DT_FLOAT
    }
  }
}
node {
  name: "ReadVariableOp_367"
  op: "ReadVariableOp"
  input: "training/Adam/vhat_51_1"
  input: "^AssignVariableOp_367"
  attr {
    key: "dtype"
    value {
      type: DT_FLOAT
    }
  }
}
node {
  name: "Placeholder_368"
  op: "Placeholder"
  attr {
    key: "dtype"
    value {
      type: DT_FLOAT
    }
  }
  attr {
    key: "shape"
    value {
      shape {
        dim {
          size: 1
        }
      }
    }
  }
}
node {
  name: "AssignVariableOp_368"
  op: "AssignVariableOp"
  input: "training/Adam/vhat_52_1"
  input: "Placeholder_368"
  attr {
    key: "dtype"
    value {
      type: DT_FLOAT
    }
  }
}
node {
  name: "ReadVariableOp_368"
  op: "ReadVariableOp"
  input: "training/Adam/vhat_52_1"
  input: "^AssignVariableOp_368"
  attr {
    key: "dtype"
    value {
      type: DT_FLOAT
    }
  }
}
node {
  name: "Placeholder_369"
  op: "Placeholder"
  attr {
    key: "dtype"
    value {
      type: DT_FLOAT
    }
  }
  attr {
    key: "shape"
    value {
      shape {
        dim {
          size: 1
        }
      }
    }
  }
}
node {
  name: "AssignVariableOp_369"
  op: "AssignVariableOp"
  input: "training/Adam/vhat_53_1"
  input: "Placeholder_369"
  attr {
    key: "dtype"
    value {
      type: DT_FLOAT
    }
  }
}
node {
  name: "ReadVariableOp_369"
  op: "ReadVariableOp"
  input: "training/Adam/vhat_53_1"
  input: "^AssignVariableOp_369"
  attr {
    key: "dtype"
    value {
      type: DT_FLOAT
    }
  }
}
node {
  name: "Placeholder_370"
  op: "Placeholder"
  attr {
    key: "dtype"
    value {
      type: DT_FLOAT
    }
  }
  attr {
    key: "shape"
    value {
      shape {
        dim {
          size: 1
        }
      }
    }
  }
}
node {
  name: "AssignVariableOp_370"
  op: "AssignVariableOp"
  input: "training/Adam/vhat_54_1"
  input: "Placeholder_370"
  attr {
    key: "dtype"
    value {
      type: DT_FLOAT
    }
  }
}
node {
  name: "ReadVariableOp_370"
  op: "ReadVariableOp"
  input: "training/Adam/vhat_54_1"
  input: "^AssignVariableOp_370"
  attr {
    key: "dtype"
    value {
      type: DT_FLOAT
    }
  }
}
node {
  name: "Placeholder_371"
  op: "Placeholder"
  attr {
    key: "dtype"
    value {
      type: DT_FLOAT
    }
  }
  attr {
    key: "shape"
    value {
      shape {
        dim {
          size: 1
        }
      }
    }
  }
}
node {
  name: "AssignVariableOp_371"
  op: "AssignVariableOp"
  input: "training/Adam/vhat_55_1"
  input: "Placeholder_371"
  attr {
    key: "dtype"
    value {
      type: DT_FLOAT
    }
  }
}
node {
  name: "ReadVariableOp_371"
  op: "ReadVariableOp"
  input: "training/Adam/vhat_55_1"
  input: "^AssignVariableOp_371"
  attr {
    key: "dtype"
    value {
      type: DT_FLOAT
    }
  }
}
node {
  name: "Placeholder_372"
  op: "Placeholder"
  attr {
    key: "dtype"
    value {
      type: DT_FLOAT
    }
  }
  attr {
    key: "shape"
    value {
      shape {
        dim {
          size: 1
        }
      }
    }
  }
}
node {
  name: "AssignVariableOp_372"
  op: "AssignVariableOp"
  input: "training/Adam/vhat_56_1"
  input: "Placeholder_372"
  attr {
    key: "dtype"
    value {
      type: DT_FLOAT
    }
  }
}
node {
  name: "ReadVariableOp_372"
  op: "ReadVariableOp"
  input: "training/Adam/vhat_56_1"
  input: "^AssignVariableOp_372"
  attr {
    key: "dtype"
    value {
      type: DT_FLOAT
    }
  }
}
node {
  name: "Placeholder_373"
  op: "Placeholder"
  attr {
    key: "dtype"
    value {
      type: DT_FLOAT
    }
  }
  attr {
    key: "shape"
    value {
      shape {
        dim {
          size: 1
        }
      }
    }
  }
}
node {
  name: "AssignVariableOp_373"
  op: "AssignVariableOp"
  input: "training/Adam/vhat_57_1"
  input: "Placeholder_373"
  attr {
    key: "dtype"
    value {
      type: DT_FLOAT
    }
  }
}
node {
  name: "ReadVariableOp_373"
  op: "ReadVariableOp"
  input: "training/Adam/vhat_57_1"
  input: "^AssignVariableOp_373"
  attr {
    key: "dtype"
    value {
      type: DT_FLOAT
    }
  }
}
node {
  name: "Placeholder_374"
  op: "Placeholder"
  attr {
    key: "dtype"
    value {
      type: DT_FLOAT
    }
  }
  attr {
    key: "shape"
    value {
      shape {
        dim {
          size: 1
        }
      }
    }
  }
}
node {
  name: "AssignVariableOp_374"
  op: "AssignVariableOp"
  input: "training/Adam/vhat_58_1"
  input: "Placeholder_374"
  attr {
    key: "dtype"
    value {
      type: DT_FLOAT
    }
  }
}
node {
  name: "ReadVariableOp_374"
  op: "ReadVariableOp"
  input: "training/Adam/vhat_58_1"
  input: "^AssignVariableOp_374"
  attr {
    key: "dtype"
    value {
      type: DT_FLOAT
    }
  }
}
node {
  name: "Placeholder_375"
  op: "Placeholder"
  attr {
    key: "dtype"
    value {
      type: DT_FLOAT
    }
  }
  attr {
    key: "shape"
    value {
      shape {
        dim {
          size: 1
        }
      }
    }
  }
}
node {
  name: "AssignVariableOp_375"
  op: "AssignVariableOp"
  input: "training/Adam/vhat_59_1"
  input: "Placeholder_375"
  attr {
    key: "dtype"
    value {
      type: DT_FLOAT
    }
  }
}
node {
  name: "ReadVariableOp_375"
  op: "ReadVariableOp"
  input: "training/Adam/vhat_59_1"
  input: "^AssignVariableOp_375"
  attr {
    key: "dtype"
    value {
      type: DT_FLOAT
    }
  }
}
node {
  name: "Placeholder_376"
  op: "Placeholder"
  attr {
    key: "dtype"
    value {
      type: DT_FLOAT
    }
  }
  attr {
    key: "shape"
    value {
      shape {
        dim {
          size: 1
        }
      }
    }
  }
}
node {
  name: "AssignVariableOp_376"
  op: "AssignVariableOp"
  input: "training/Adam/vhat_60_1"
  input: "Placeholder_376"
  attr {
    key: "dtype"
    value {
      type: DT_FLOAT
    }
  }
}
node {
  name: "ReadVariableOp_376"
  op: "ReadVariableOp"
  input: "training/Adam/vhat_60_1"
  input: "^AssignVariableOp_376"
  attr {
    key: "dtype"
    value {
      type: DT_FLOAT
    }
  }
}
node {
  name: "Placeholder_377"
  op: "Placeholder"
  attr {
    key: "dtype"
    value {
      type: DT_FLOAT
    }
  }
  attr {
    key: "shape"
    value {
      shape {
        dim {
          size: 1
        }
      }
    }
  }
}
node {
  name: "AssignVariableOp_377"
  op: "AssignVariableOp"
  input: "training/Adam/vhat_61_1"
  input: "Placeholder_377"
  attr {
    key: "dtype"
    value {
      type: DT_FLOAT
    }
  }
}
node {
  name: "ReadVariableOp_377"
  op: "ReadVariableOp"
  input: "training/Adam/vhat_61_1"
  input: "^AssignVariableOp_377"
  attr {
    key: "dtype"
    value {
      type: DT_FLOAT
    }
  }
}
node {
  name: "Placeholder_378"
  op: "Placeholder"
  attr {
    key: "dtype"
    value {
      type: DT_FLOAT
    }
  }
  attr {
    key: "shape"
    value {
      shape {
        dim {
          size: 1
        }
      }
    }
  }
}
node {
  name: "AssignVariableOp_378"
  op: "AssignVariableOp"
  input: "training/Adam/vhat_62_1"
  input: "Placeholder_378"
  attr {
    key: "dtype"
    value {
      type: DT_FLOAT
    }
  }
}
node {
  name: "ReadVariableOp_378"
  op: "ReadVariableOp"
  input: "training/Adam/vhat_62_1"
  input: "^AssignVariableOp_378"
  attr {
    key: "dtype"
    value {
      type: DT_FLOAT
    }
  }
}
node {
  name: "Placeholder_379"
  op: "Placeholder"
  attr {
    key: "dtype"
    value {
      type: DT_FLOAT
    }
  }
  attr {
    key: "shape"
    value {
      shape {
        dim {
          size: 1
        }
      }
    }
  }
}
node {
  name: "AssignVariableOp_379"
  op: "AssignVariableOp"
  input: "training/Adam/vhat_63_1"
  input: "Placeholder_379"
  attr {
    key: "dtype"
    value {
      type: DT_FLOAT
    }
  }
}
node {
  name: "ReadVariableOp_379"
  op: "ReadVariableOp"
  input: "training/Adam/vhat_63_1"
  input: "^AssignVariableOp_379"
  attr {
    key: "dtype"
    value {
      type: DT_FLOAT
    }
  }
}
node {
  name: "Placeholder_380"
  op: "Placeholder"
  attr {
    key: "dtype"
    value {
      type: DT_FLOAT
    }
  }
  attr {
    key: "shape"
    value {
      shape {
        dim {
          size: 1
        }
      }
    }
  }
}
node {
  name: "AssignVariableOp_380"
  op: "AssignVariableOp"
  input: "training/Adam/vhat_64_1"
  input: "Placeholder_380"
  attr {
    key: "dtype"
    value {
      type: DT_FLOAT
    }
  }
}
node {
  name: "ReadVariableOp_380"
  op: "ReadVariableOp"
  input: "training/Adam/vhat_64_1"
  input: "^AssignVariableOp_380"
  attr {
    key: "dtype"
    value {
      type: DT_FLOAT
    }
  }
}
node {
  name: "Placeholder_381"
  op: "Placeholder"
  attr {
    key: "dtype"
    value {
      type: DT_FLOAT
    }
  }
  attr {
    key: "shape"
    value {
      shape {
        dim {
          size: 1
        }
      }
    }
  }
}
node {
  name: "AssignVariableOp_381"
  op: "AssignVariableOp"
  input: "training/Adam/vhat_65_1"
  input: "Placeholder_381"
  attr {
    key: "dtype"
    value {
      type: DT_FLOAT
    }
  }
}
node {
  name: "ReadVariableOp_381"
  op: "ReadVariableOp"
  input: "training/Adam/vhat_65_1"
  input: "^AssignVariableOp_381"
  attr {
    key: "dtype"
    value {
      type: DT_FLOAT
    }
  }
}
node {
  name: "Placeholder_382"
  op: "Placeholder"
  attr {
    key: "dtype"
    value {
      type: DT_FLOAT
    }
  }
  attr {
    key: "shape"
    value {
      shape {
        dim {
          size: 1
        }
      }
    }
  }
}
node {
  name: "AssignVariableOp_382"
  op: "AssignVariableOp"
  input: "training/Adam/vhat_66_1"
  input: "Placeholder_382"
  attr {
    key: "dtype"
    value {
      type: DT_FLOAT
    }
  }
}
node {
  name: "ReadVariableOp_382"
  op: "ReadVariableOp"
  input: "training/Adam/vhat_66_1"
  input: "^AssignVariableOp_382"
  attr {
    key: "dtype"
    value {
      type: DT_FLOAT
    }
  }
}
node {
  name: "Placeholder_383"
  op: "Placeholder"
  attr {
    key: "dtype"
    value {
      type: DT_FLOAT
    }
  }
  attr {
    key: "shape"
    value {
      shape {
        dim {
          size: 1
        }
      }
    }
  }
}
node {
  name: "AssignVariableOp_383"
  op: "AssignVariableOp"
  input: "training/Adam/vhat_67_1"
  input: "Placeholder_383"
  attr {
    key: "dtype"
    value {
      type: DT_FLOAT
    }
  }
}
node {
  name: "ReadVariableOp_383"
  op: "ReadVariableOp"
  input: "training/Adam/vhat_67_1"
  input: "^AssignVariableOp_383"
  attr {
    key: "dtype"
    value {
      type: DT_FLOAT
    }
  }
}
node {
  name: "Placeholder_384"
  op: "Placeholder"
  attr {
    key: "dtype"
    value {
      type: DT_FLOAT
    }
  }
  attr {
    key: "shape"
    value {
      shape {
        dim {
          size: 1
        }
      }
    }
  }
}
node {
  name: "AssignVariableOp_384"
  op: "AssignVariableOp"
  input: "training/Adam/vhat_68_1"
  input: "Placeholder_384"
  attr {
    key: "dtype"
    value {
      type: DT_FLOAT
    }
  }
}
node {
  name: "ReadVariableOp_384"
  op: "ReadVariableOp"
  input: "training/Adam/vhat_68_1"
  input: "^AssignVariableOp_384"
  attr {
    key: "dtype"
    value {
      type: DT_FLOAT
    }
  }
}
node {
  name: "Placeholder_385"
  op: "Placeholder"
  attr {
    key: "dtype"
    value {
      type: DT_FLOAT
    }
  }
  attr {
    key: "shape"
    value {
      shape {
        dim {
          size: 1
        }
      }
    }
  }
}
node {
  name: "AssignVariableOp_385"
  op: "AssignVariableOp"
  input: "training/Adam/vhat_69_1"
  input: "Placeholder_385"
  attr {
    key: "dtype"
    value {
      type: DT_FLOAT
    }
  }
}
node {
  name: "ReadVariableOp_385"
  op: "ReadVariableOp"
  input: "training/Adam/vhat_69_1"
  input: "^AssignVariableOp_385"
  attr {
    key: "dtype"
    value {
      type: DT_FLOAT
    }
  }
}
node {
  name: "Placeholder_386"
  op: "Placeholder"
  attr {
    key: "dtype"
    value {
      type: DT_FLOAT
    }
  }
  attr {
    key: "shape"
    value {
      shape {
        dim {
          size: 1
        }
      }
    }
  }
}
node {
  name: "AssignVariableOp_386"
  op: "AssignVariableOp"
  input: "training/Adam/vhat_70_1"
  input: "Placeholder_386"
  attr {
    key: "dtype"
    value {
      type: DT_FLOAT
    }
  }
}
node {
  name: "ReadVariableOp_386"
  op: "ReadVariableOp"
  input: "training/Adam/vhat_70_1"
  input: "^AssignVariableOp_386"
  attr {
    key: "dtype"
    value {
      type: DT_FLOAT
    }
  }
}
node {
  name: "Placeholder_387"
  op: "Placeholder"
  attr {
    key: "dtype"
    value {
      type: DT_FLOAT
    }
  }
  attr {
    key: "shape"
    value {
      shape {
        dim {
          size: 1
        }
      }
    }
  }
}
node {
  name: "AssignVariableOp_387"
  op: "AssignVariableOp"
  input: "training/Adam/vhat_71_1"
  input: "Placeholder_387"
  attr {
    key: "dtype"
    value {
      type: DT_FLOAT
    }
  }
}
node {
  name: "ReadVariableOp_387"
  op: "ReadVariableOp"
  input: "training/Adam/vhat_71_1"
  input: "^AssignVariableOp_387"
  attr {
    key: "dtype"
    value {
      type: DT_FLOAT
    }
  }
}
node {
  name: "Placeholder_388"
  op: "Placeholder"
  attr {
    key: "dtype"
    value {
      type: DT_FLOAT
    }
  }
  attr {
    key: "shape"
    value {
      shape {
        dim {
          size: 1
        }
      }
    }
  }
}
node {
  name: "AssignVariableOp_388"
  op: "AssignVariableOp"
  input: "training/Adam/vhat_72_1"
  input: "Placeholder_388"
  attr {
    key: "dtype"
    value {
      type: DT_FLOAT
    }
  }
}
node {
  name: "ReadVariableOp_388"
  op: "ReadVariableOp"
  input: "training/Adam/vhat_72_1"
  input: "^AssignVariableOp_388"
  attr {
    key: "dtype"
    value {
      type: DT_FLOAT
    }
  }
}
node {
  name: "Placeholder_389"
  op: "Placeholder"
  attr {
    key: "dtype"
    value {
      type: DT_FLOAT
    }
  }
  attr {
    key: "shape"
    value {
      shape {
        dim {
          size: 1
        }
      }
    }
  }
}
node {
  name: "AssignVariableOp_389"
  op: "AssignVariableOp"
  input: "training/Adam/vhat_73_1"
  input: "Placeholder_389"
  attr {
    key: "dtype"
    value {
      type: DT_FLOAT
    }
  }
}
node {
  name: "ReadVariableOp_389"
  op: "ReadVariableOp"
  input: "training/Adam/vhat_73_1"
  input: "^AssignVariableOp_389"
  attr {
    key: "dtype"
    value {
      type: DT_FLOAT
    }
  }
}
node {
  name: "Placeholder_390"
  op: "Placeholder"
  attr {
    key: "dtype"
    value {
      type: DT_FLOAT
    }
  }
  attr {
    key: "shape"
    value {
      shape {
        dim {
          size: 1
        }
      }
    }
  }
}
node {
  name: "AssignVariableOp_390"
  op: "AssignVariableOp"
  input: "training/Adam/vhat_74_1"
  input: "Placeholder_390"
  attr {
    key: "dtype"
    value {
      type: DT_FLOAT
    }
  }
}
node {
  name: "ReadVariableOp_390"
  op: "ReadVariableOp"
  input: "training/Adam/vhat_74_1"
  input: "^AssignVariableOp_390"
  attr {
    key: "dtype"
    value {
      type: DT_FLOAT
    }
  }
}
node {
  name: "Placeholder_391"
  op: "Placeholder"
  attr {
    key: "dtype"
    value {
      type: DT_FLOAT
    }
  }
  attr {
    key: "shape"
    value {
      shape {
        dim {
          size: 1
        }
      }
    }
  }
}
node {
  name: "AssignVariableOp_391"
  op: "AssignVariableOp"
  input: "training/Adam/vhat_75_1"
  input: "Placeholder_391"
  attr {
    key: "dtype"
    value {
      type: DT_FLOAT
    }
  }
}
node {
  name: "ReadVariableOp_391"
  op: "ReadVariableOp"
  input: "training/Adam/vhat_75_1"
  input: "^AssignVariableOp_391"
  attr {
    key: "dtype"
    value {
      type: DT_FLOAT
    }
  }
}
node {
  name: "Placeholder_392"
  op: "Placeholder"
  attr {
    key: "dtype"
    value {
      type: DT_FLOAT
    }
  }
  attr {
    key: "shape"
    value {
      shape {
        dim {
          size: 1
        }
      }
    }
  }
}
node {
  name: "AssignVariableOp_392"
  op: "AssignVariableOp"
  input: "training/Adam/vhat_76_1"
  input: "Placeholder_392"
  attr {
    key: "dtype"
    value {
      type: DT_FLOAT
    }
  }
}
node {
  name: "ReadVariableOp_392"
  op: "ReadVariableOp"
  input: "training/Adam/vhat_76_1"
  input: "^AssignVariableOp_392"
  attr {
    key: "dtype"
    value {
      type: DT_FLOAT
    }
  }
}
node {
  name: "Placeholder_393"
  op: "Placeholder"
  attr {
    key: "dtype"
    value {
      type: DT_FLOAT
    }
  }
  attr {
    key: "shape"
    value {
      shape {
        dim {
          size: 1
        }
      }
    }
  }
}
node {
  name: "AssignVariableOp_393"
  op: "AssignVariableOp"
  input: "training/Adam/vhat_77_1"
  input: "Placeholder_393"
  attr {
    key: "dtype"
    value {
      type: DT_FLOAT
    }
  }
}
node {
  name: "ReadVariableOp_393"
  op: "ReadVariableOp"
  input: "training/Adam/vhat_77_1"
  input: "^AssignVariableOp_393"
  attr {
    key: "dtype"
    value {
      type: DT_FLOAT
    }
  }
}
node {
  name: "Placeholder_394"
  op: "Placeholder"
  attr {
    key: "dtype"
    value {
      type: DT_FLOAT
    }
  }
  attr {
    key: "shape"
    value {
      shape {
        dim {
          size: 1
        }
      }
    }
  }
}
node {
  name: "AssignVariableOp_394"
  op: "AssignVariableOp"
  input: "training/Adam/vhat_78_1"
  input: "Placeholder_394"
  attr {
    key: "dtype"
    value {
      type: DT_FLOAT
    }
  }
}
node {
  name: "ReadVariableOp_394"
  op: "ReadVariableOp"
  input: "training/Adam/vhat_78_1"
  input: "^AssignVariableOp_394"
  attr {
    key: "dtype"
    value {
      type: DT_FLOAT
    }
  }
}
node {
  name: "Placeholder_395"
  op: "Placeholder"
  attr {
    key: "dtype"
    value {
      type: DT_FLOAT
    }
  }
  attr {
    key: "shape"
    value {
      shape {
        dim {
          size: 1
        }
      }
    }
  }
}
node {
  name: "AssignVariableOp_395"
  op: "AssignVariableOp"
  input: "training/Adam/vhat_79_1"
  input: "Placeholder_395"
  attr {
    key: "dtype"
    value {
      type: DT_FLOAT
    }
  }
}
node {
  name: "ReadVariableOp_395"
  op: "ReadVariableOp"
  input: "training/Adam/vhat_79_1"
  input: "^AssignVariableOp_395"
  attr {
    key: "dtype"
    value {
      type: DT_FLOAT
    }
  }
}
node {
  name: "Placeholder_396"
  op: "Placeholder"
  attr {
    key: "dtype"
    value {
      type: DT_FLOAT
    }
  }
  attr {
    key: "shape"
    value {
      shape {
        dim {
          size: 1
        }
      }
    }
  }
}
node {
  name: "AssignVariableOp_396"
  op: "AssignVariableOp"
  input: "training/Adam/vhat_80_1"
  input: "Placeholder_396"
  attr {
    key: "dtype"
    value {
      type: DT_FLOAT
    }
  }
}
node {
  name: "ReadVariableOp_396"
  op: "ReadVariableOp"
  input: "training/Adam/vhat_80_1"
  input: "^AssignVariableOp_396"
  attr {
    key: "dtype"
    value {
      type: DT_FLOAT
    }
  }
}
node {
  name: "Placeholder_397"
  op: "Placeholder"
  attr {
    key: "dtype"
    value {
      type: DT_FLOAT
    }
  }
  attr {
    key: "shape"
    value {
      shape {
        dim {
          size: 1
        }
      }
    }
  }
}
node {
  name: "AssignVariableOp_397"
  op: "AssignVariableOp"
  input: "training/Adam/vhat_81_1"
  input: "Placeholder_397"
  attr {
    key: "dtype"
    value {
      type: DT_FLOAT
    }
  }
}
node {
  name: "ReadVariableOp_397"
  op: "ReadVariableOp"
  input: "training/Adam/vhat_81_1"
  input: "^AssignVariableOp_397"
  attr {
    key: "dtype"
    value {
      type: DT_FLOAT
    }
  }
}
node {
  name: "Placeholder_398"
  op: "Placeholder"
  attr {
    key: "dtype"
    value {
      type: DT_FLOAT
    }
  }
  attr {
    key: "shape"
    value {
      shape {
        dim {
          size: 1
        }
      }
    }
  }
}
node {
  name: "AssignVariableOp_398"
  op: "AssignVariableOp"
  input: "training/Adam/vhat_82_1"
  input: "Placeholder_398"
  attr {
    key: "dtype"
    value {
      type: DT_FLOAT
    }
  }
}
node {
  name: "ReadVariableOp_398"
  op: "ReadVariableOp"
  input: "training/Adam/vhat_82_1"
  input: "^AssignVariableOp_398"
  attr {
    key: "dtype"
    value {
      type: DT_FLOAT
    }
  }
}
node {
  name: "Placeholder_399"
  op: "Placeholder"
  attr {
    key: "dtype"
    value {
      type: DT_FLOAT
    }
  }
  attr {
    key: "shape"
    value {
      shape {
        dim {
          size: 1
        }
      }
    }
  }
}
node {
  name: "AssignVariableOp_399"
  op: "AssignVariableOp"
  input: "training/Adam/vhat_83_1"
  input: "Placeholder_399"
  attr {
    key: "dtype"
    value {
      type: DT_FLOAT
    }
  }
}
node {
  name: "ReadVariableOp_399"
  op: "ReadVariableOp"
  input: "training/Adam/vhat_83_1"
  input: "^AssignVariableOp_399"
  attr {
    key: "dtype"
    value {
      type: DT_FLOAT
    }
  }
}
node {
  name: "Placeholder_400"
  op: "Placeholder"
  attr {
    key: "dtype"
    value {
      type: DT_FLOAT
    }
  }
  attr {
    key: "shape"
    value {
      shape {
        dim {
          size: 1
        }
      }
    }
  }
}
node {
  name: "AssignVariableOp_400"
  op: "AssignVariableOp"
  input: "training/Adam/vhat_84_1"
  input: "Placeholder_400"
  attr {
    key: "dtype"
    value {
      type: DT_FLOAT
    }
  }
}
node {
  name: "ReadVariableOp_400"
  op: "ReadVariableOp"
  input: "training/Adam/vhat_84_1"
  input: "^AssignVariableOp_400"
  attr {
    key: "dtype"
    value {
      type: DT_FLOAT
    }
  }
}
node {
  name: "Placeholder_401"
  op: "Placeholder"
  attr {
    key: "dtype"
    value {
      type: DT_FLOAT
    }
  }
  attr {
    key: "shape"
    value {
      shape {
        dim {
          size: 1
        }
      }
    }
  }
}
node {
  name: "AssignVariableOp_401"
  op: "AssignVariableOp"
  input: "training/Adam/vhat_85_1"
  input: "Placeholder_401"
  attr {
    key: "dtype"
    value {
      type: DT_FLOAT
    }
  }
}
node {
  name: "ReadVariableOp_401"
  op: "ReadVariableOp"
  input: "training/Adam/vhat_85_1"
  input: "^AssignVariableOp_401"
  attr {
    key: "dtype"
    value {
      type: DT_FLOAT
    }
  }
}
node {
  name: "Placeholder_402"
  op: "Placeholder"
  attr {
    key: "dtype"
    value {
      type: DT_FLOAT
    }
  }
  attr {
    key: "shape"
    value {
      shape {
        dim {
          size: 1
        }
      }
    }
  }
}
node {
  name: "AssignVariableOp_402"
  op: "AssignVariableOp"
  input: "training/Adam/vhat_86_1"
  input: "Placeholder_402"
  attr {
    key: "dtype"
    value {
      type: DT_FLOAT
    }
  }
}
node {
  name: "ReadVariableOp_402"
  op: "ReadVariableOp"
  input: "training/Adam/vhat_86_1"
  input: "^AssignVariableOp_402"
  attr {
    key: "dtype"
    value {
      type: DT_FLOAT
    }
  }
}
node {
  name: "k2tfout_0"
  op: "Identity"
  input: "cat_out/Reshape"
  attr {
    key: "T"
    value {
      type: DT_FLOAT
    }
  }
}
node {
  name: "k2tfout_1"
  op: "Identity"
  input: "reg_out/Reshape"
  attr {
    key: "T"
    value {
      type: DT_FLOAT
    }
  }
}
node {
  name: "k2tfout_2"
  op: "Identity"
  input: "bin_out/Reshape"
  attr {
    key: "T"
    value {
      type: DT_FLOAT
    }
  }
}
versions {
  producer: 38
}
